src/TRY_WITH_10FPS.pth (torch, 121852 bytes, 7 tensors)

encoder.0.weight f4 [16, 1, 3, 3, 3]
0	0x3c3a1658	0.011357866
1	0xbe326d2b	-0.17424457
2	0xbe6e9a58	-0.23301065
3	0xbe501b9a	-0.20323029
4	0xbcf9e967	-0.030506803
5	0xbe57bb73	-0.210676
6	0xbeab89e9	-0.33503655
7	0xbe3d23d2	-0.18470696
8	0xbe23af13	-0.15984754
9	0x3e781634	0.2422722
10	0x3de143d4	0.10999265
11	0x3e0548fd	0.13016124
12	0x3e373258	0.17890298
13	0x3de2544e	0.11051236
14	0xbd352029	-0.044220123
15	0x3c8eda6e	0.01743814
16	0xbe031842	-0.12802222
17	0x3c9b2d39	0.018942462
18	0xbdec3612	-0.115337506
19	0xbc9156a1	-0.017741503
20	0xbdc6484e	-0.0968176
21	0x3e198b4a	0.14994541
22	0x3c0e1dbf	0.008674084
23	0xbd866843	-0.06562855
24	0x3d805638	0.06266445
25	0x3db6f1b8	0.08932823
26	0xbe1d6d37	-0.15373693
27	0x3debbc9d	0.115105845
28	0x39ec6d61	0.0004509492
29	0x3d1c0bac	0.03809707
30	0x3d99a952	0.075029984
31	0x3e380299	0.17969741
32	0x3c8dac8f	0.017294196
33	0x3e1b64be	0.15175149
34	0x3ce6a4a3	0.028154677
35	0xbdbc09d4	-0.09181562
36	0x3e4755e1	0.19466354
37	0x3e0e0cb1	0.13872029
38	0xbe2c3c64	-0.16819912
39	0x3e1fc98a	0.15604225
40	0x3dc050ba	0.09390397
41	0xbe21c524	-0.1579786
42	0xbdb6028d	-0.08887205
43	0xbe2f6179	-0.17127027
44	0x3c199d21	0.009375841
45	0x3d830677	0.063977174
46	0xbe569754	-0.20956165
47	0x3daa70ea	0.08322318
48	0xbe0c60d3	-0.1370881
49	0xbd2fb134	-0.042893603
50	0x3e4b77b3	0.1986988
51	0xbe83c9c5	-0.25739875
52	0xbe3e71df	-0.18598126
53	0x3ca5378f	0.020168094
54	0xbd56c1a1	-0.052430753
55	0x3dc04910	0.093889356
56	0x3dbdca6e	0.09267126
57	0xbc295ad0	-0.010336593
58	0xbc511293	-0.012760776
59	0x3e5f4c65	0.21806486
60	0xbe072224	-0.13196617
61	0xbdc811ba	-0.09769006
62	0x3dcbdf39	0.09954686
63	0x3e539c68	0.20665133
64	0xbe329abb	-0.17441837
65	0xbe2918ca	-0.16513363
66	0x3e0fd283	0.14045148
67	0xbe219307	-0.15778743
68	0xbd3f7e14	-0.046751097
69	0x3e4bb972	0.1989496
70	0xbe13b2f4	-0.14423734
71	0xbe09894e	-0.13431284
72	0xbe9dce9e	-0.308217
73	0xbe3fc751	-0.18728377
74	0xbe42b27b	-0.19013397
75	0x3ce1ce92	0.02756432
76	0xbe1bbaa8	-0.15207922
77	0x3e02d389	0.12776007
78	0x3df36875	0.11885158
79	0x3e46e22b	0.19422214
80	0xbcc4bf1d	-0.024016911
81	0xbdc4a051	-0.096008904
82	0xbcd12570	-0.025530547
83	0xbdf1afc1	-0.118011005
84	0xbe4cd688	-0.20003712
85	0xbe01947d	-0.126543
86	0xbc762a06	-0.015024668
87	0x3da17ead	0.078854896
88	0xbde024b9	-0.10944504
89	0x3af46140	0.0018644705
90	0x3e264482	0.16237071
91	0x3de9fc14	0.11425033
92	0x3dbd7521	0.09250856
93	0xbd95c6d7	-0.07313316
94	0xbd8bab2e	-0.06819759
95	0xbd046842	-0.03232599
96	0xbc071a3e	-0.008246003
97	0x3e2f05e1	0.17092086
98	0x3a07ec8c	0.00051850895
99	0x3db6aecf	0.08920061
100	0x3df0b8ee	0.117540225
101	0xbd52cdda	-0.051465847
102	0x3e26eff0	0.16302466
103	0xbd98ff25	-0.0747054
104	0x3da450f7	0.08023255
105	0xbe4f6b0b	-0.20255677
106	0x3e33aafd	0.17545696
107	0x3e4e9c2e	0.20176765
108	0x3d4f1793	0.05055959
109	0x3cd7c778	0.026340231
110	0x3d4499ff	0.047998425
111	0x3de60b5e	0.11232637
112	0x3d87a8f5	0.06624023
113	0x3d003124	0.031296864
114	0x3e060229	0.13086762
115	0x3d99a42e	0.07502018
116	0x3e69e48e	0.22841093
117	0x3d4bafa6	0.04972806
118	0xbea05131	-0.31311944
119	0xbf163943	-0.58681124
120	0xbe39a9c6	-0.1813117
121	0xbef4992e	-0.47773117
122	0xbe468795	-0.19387658
123	0xbe3e5483	-0.18586926
124	0x3d6456ec	0.055746958
125	0x3d48aa31	0.048990432
126	0xbe8aa380	-0.27077866
127	0x3e71dfad	0.23620482
128	0x3e648542	0.22316459
129	0xbdbea315	-0.09308449
130	0x3ce94deb	0.028479537
131	0xbcafc400	-0.021455765
132	0xbdfdd042	-0.12393238
133	0x3d574410	0.052555144
134	0xbd119cdc	-0.035549983
135	0x3ce60cce	0.028082278
136	0x3c50cbc7	0.012743897
137	0x3cb1aae7	0.021687938
138	0x3c2cb13a	0.010540301
139	0x3cee2adb	0.02907317
140	0x3d148627	0.03626075
141	0x3e423da0	0.1896882
142	0x3e279645	0.16365917
143	0x3ce7fe53	0.028319513
144	0xbe9ba818	-0.30401683
145	0xbdc633f8	-0.09677881
146	0xbe44c8a9	-0.19217171
147	0xbdb9391d	-0.090440966
148	0xbf1810f8	-0.5940089
149	0xbc9e3e32	-0.019316766
150	0xbd6da3e0	-0.05801761
151	0xbb99cd13	-0.004693636
152	0xbea8763c	-0.32902706
153	0x3e21b5a7	0.15791951
154	0xbe23a79e	-0.1598191
155	0xbe22b0bc	-0.15887731
156	0xbcfcf0d0	-0.030876547
157	0xbeab4c31	-0.33456567
158	0xbe946f87	-0.2899134
159	0x3c1cd6fb	0.00957274
160	0xbef6a14e	-0.4816994
161	0xbe9c55ee	-0.3053431
162	0x3e4d052e	0.20021507
163	0x3d321cfa	0.043484665
164	0x3e3af671	0.18258072
165	0x3da1b7bc	0.07896373
166	0xbda2af5c	-0.079436034
167	0xbd95e2ee	-0.07318674
168	0xbc266069	-0.010154822
169	0xbdd2797c	-0.102770776
170	0xbd9a6750	-0.075392365
171	0x3cc443f5	0.023958186
172	0x3d123b2b	0.03570096
173	0x3e062220	0.13098955
174	0xbc27279c	-0.010202315
175	0x3e2c4137	0.16821752
176	0x3d8f2742	0.0698991
177	0x3e45661e	0.19277236
178	0xbddb7149	-0.10714967
179	0xbd7cf7ca	-0.061759748
180	0x3e3e6277	0.18592249
181	0x3e0aba52	0.13547638
182	0x3d876258	0.066105545
183	0xbe65d749	-0.22445406
184	0x3e1fa442	0.15590003
185	0xbdbddd5d	-0.09270737
186	0xbd95b6d6	-0.07310264
187	0x3bb7564c	0.005595004
188	0xbdbe71fd	-0.09299085
189	0x3c7b7b70	0.015349254
190	0x3e0d38f2	0.13791254
191	0x3e1fcda5	0.15605791
192	0x3a21d06d	0.00061727205
193	0xbce9b61b	-0.028529217
194	0x3de45276	0.11148541
195	0xbe0d34fc	-0.13789743
196	0xbd1f8ec7	-0.038954522
197	0xbd9fe99c	-0.07808229
198	0x3d977bc4	0.07396653
199	0x3d714777	0.058906045
200	0x3d5be5e0	0.053686023
201	0xbcf5278f	-0.02992609
202	0xbe4f6e82	-0.20256999
203	0xbe1ef590	-0.15523362
204	0x3e8fa9d9	0.2805927
205	0x3e560ebd	0.2090406
206	0x3e2d4145	0.1691943
207	0xbe4629ca	-0.19351879
208	0x3dc08a6c	0.09401402
209	0x3e6cfa51	0.23142363
210	0xbd89d4aa	-0.067300156
211	0x3cb583fd	0.022157663
212	0xbd970efc	-0.07375905
213	0x3db88e28	0.09011489
214	0xbe5afc4f	-0.2138531
215	0xbe2d655d	-0.16933198
216	0xbafe308c	-0.001939313
217	0x3d9638f7	0.07335084
218	0xbcea6755	-0.028613726
219	0x3c3a989d	0.011388925
220	0x3cc555d5	0.02408878
221	0x3caf1166	0.0213706
222	0x3d8a6f3f	0.067595
223	0xbbd4082c	-0.0064707007
224	0x3e0e996b	0.13925712
225	0x3e05be9b	0.13060991
226	0x3d8a13e2	0.067420736
227	0x3e68acef	0.22722219
228	0x3e3a364d	0.18184777
229	0xbc892847	-0.016742839
230	0xbd29ea7d	-0.04148339
231	0x3d75655f	0.059911128
232	0xbe4cae33	-0.19988327
233	0xbe57a025	-0.21057184
234	0xbdb2da82	-0.08733083
235	0xbe8126d2	-0.2522493
236	0xbe01b923	-0.1266828
237	0xbe083c61	-0.13304283
238	0xbebadf0d	-0.364983
239	0xbd09674c	-0.033545777
240	0xbca1a398	-0.019731328
241	0x3db543ea	0.08850844
242	0x3d301421	0.042987946
243	0xbf1ca89c	-0.6119478
244	0xbe20f8f9	-0.15719976
245	0xbe2785d8	-0.16359651
246	0xbe748395	-0.2387832
247	0xbe0af0b4	-0.13568383
248	0x3cd19c2e	0.025587168
249	0xbe606882	-0.21914867
250	0xbe0ea673	-0.13930683
251	0xbe8531f3	-0.2601467
252	0xbdcde82e	-0.100540504
253	0xbe8e3209	-0.2777255
254	0x3e898a93	0.26863536
255	0xbd852f00	-0.06503105

encoder.0.bias f4 [16]
0	0x3d37c915	0.0448695
1	0xbe25abed	-0.16178866
2	0x3cacc460	0.021089733
3	0xbd89f72a	-0.06736596
4	0x3cc12adf	0.023580013
5	0x3e42269d	0.18960042
6	0xbe419224	-0.18903404
7	0xbda02ad0	-0.07820666
8	0xb960d03f	-0.00021439882
9	0x3c0824d6	0.008309564
10	0xbbd7495f	-0.006570026
11	0xbdfe27c0	-0.124099255
12	0x3c5a4faf	0.013324662
13	0xbd463d97	-0.04839858
14	0xbb3a14d4	-0.0028393762
15	0xbdcc6775	-0.0998067

encoder.2.weight f4 [32, 16, 3, 3, 3]
0	0x3d97d82f	0.074142806
1	0x3c2717fa	0.010198588
2	0x3d96e06f	0.07367026
3	0x3dd069f5	0.1017646
4	0x3d6ba2f2	0.057528444
5	0xbb8633f4	-0.0040955488
6	0x3c600515	0.013673087
7	0xbc91c664	-0.017794795
8	0xbb5e7a5e	-0.0033947448
9	0xbdb567b6	-0.08857672
10	0xbd83c857	-0.06434696
11	0x3cea4fbd	0.028602475
12	0xbd904ba6	-0.07045679
13	0xbcd7c068	-0.026336864
14	0xbc831071	-0.01599905
15	0xbdb6f3cb	-0.089332186
16	0x3ab4f20a	0.0013805043
17	0xbd672a3f	-0.056436773
18	0xbe1263ef	-0.14295934
19	0xbe627fbe	-0.22119042
20	0xbe1c5588	-0.15267003
21	0xbe2347d1	-0.15945365
22	0xbcef206d	-0.029190267
23	0xbd3179ab	-0.043328922
24	0xbe12d4e2	-0.14339021
25	0xbd6f64e1	-0.058445815
26	0xbdf05cfd	-0.11736486
27	0xbde75d17	-0.11297052
28	0xbca51f1d	-0.020156438
29	0x3ce4f94b	0.027950903
30	0xbdd9436c	-0.10608563
31	0xbc14d267	-0.009083367
32	0x3d111397	0.035419073
33	0x3c91cb1d	0.017797047
34	0x3cb1edea	0.021719892
35	0x3b8bfb74	0.004271919
36	0x3c0891f4	0.008335579
37	0x3d7dda7d	0.061975945
38	0xbbec7eda	-0.0072172703
39	0x3c02fed3	0.007995325
40	0xbd0ff9b5	-0.03515025
41	0xbbeb23d1	-0.0071759005
42	0x3c22772d	0.009916109
43	0xbd182f5f	-0.03715455
44	0xbd6fdfd6	-0.058563076
45	0x3ddfaee7	0.10922032
46	0xbbb42fde	-0.0054988703
47	0x3d1623cf	0.036655243
48	0x3cfbde94	0.030745782
49	0x3d854309	0.065069266
50	0x3d0e28ab	0.034706753
51	0x3ce148ed	0.027500594
52	0x3d05b483	0.032642853
53	0x3d0ea12e	0.03482168
54	0xbc74249c	-0.0149013065
55	0xbd0ad21b	-0.03389178
56	0xbcb30272	-0.021851752
57	0x3d53100f	0.051528987
58	0xbca5c05b	-0.020233324
59	0xbc67782b	-0.014127771
60	0x3dab2bc4	0.08357957
61	0xbd445ca3	-0.047939908
62	0xbaf329e3	-0.0018551912
63	0x3c7a6fef	0.015285476
64	0x3d5552fa	0.052081086
65	0xbd3b5bad	-0.045741726
66	0x3d0d6c5a	0.03452716
67	0xbcd049a1	-0.025425734
68	0xbcae0dc4	-0.021246798
69	0x3d82579f	0.06364369
70	0x3d5cbe01	0.05389214
71	0xbc740a68	-0.014895059
72	0xbdae0648	-0.08497292
73	0xbd8b863a	-0.06812711
74	0x3c38aed0	0.011272147
75	0xbc5ca54f	-0.013467147
76	0xbd910edf	-0.070829146
77	0x3d23b16f	0.039964136
78	0x3b7c6113	0.003851001
79	0xbc6e8ee6	-0.014560437
80	0xbdc55587	-0.09635454
81	0x3d84c0ae	0.06482063
82	0x3d0c5873	0.03426404
83	0x3d8aa76f	0.06770217
84	0x3d015242	0.031572588
85	0x3cde1b30	0.027112573
86	0x3d738c4a	0.059459962
87	0x3ce1b571	0.027552338
88	0x3c5e1286	0.013554221
89	0x3daa8907	0.08326917
90	0xbc7b544d	-0.015339923
91	0x3d354f25	0.04426493
92	0x3d2bdc40	0.041958094
93	0xbdafe64e	-0.08588849
94	0x3d0968b1	0.033547107
95	0x3b8603f2	0.004089826
96	0xbd97ef03	-0.07418635
97	0x3ce734a5	0.028223345
98	0x3d1da3de	0.038486354
99	0xbdedb053	-0.11605897
100	0xbdbcff95	-0.09228436
101	0xbdced82a	-0.10099824
102	0xbe69529b	-0.22785418
103	0xbdc3d860	-0.09562755
104	0xbdfc2b6e	-0.12312971
105	0xbd9d4fc3	-0.07681229
106	0xbc4ccc67	-0.012499905
107	0x3cafe21d	0.021470124
108	0xbde70b48	-0.112814486
109	0x3d0043e3	0.03131474
110	0xbd8d196b	-0.06889614
111	0xbd4e4a9a	-0.050364114
112	0xbd9e23ba	-0.07721658
113	0xbde1c16d	-0.11023221
114	0xbde3054e	-0.11084996
115	0xbdc125bd	-0.09431026
116	0xbe0d441f	-0.13795517
117	0xbe14809b	-0.14502184
118	0xbc8d6fb2	-0.017265175
119	0xbd58941f	-0.052875634
120	0xbc129899	-0.008947515
121	0x3d3a6b23	0.04551233
122	0xbd076eb8	-0.033064574
123	0xbcef6db0	-0.029227108
124	0xbd3c101a	-0.045913793
125	0xbe2409e8	-0.16019404
126	0xbe1fb5f8	-0.1559676
127	0xbdc4deb3	-0.09612789
128	0x3bd5c915	0.006524215
129	0xbdee352f	-0.11631238
130	0xbdfefbbb	-0.124503575
131	0xbd01bd0b	-0.031674426
132	0xbd1c5299	-0.03816471
133	0xbdd7bfc8	-0.10534626
134	0xbd3df8c9	-0.04637984
135	0xbe27a7a6	-0.16372547
136	0xbd34a6a5	-0.044104237
137	0xbd6f4b19	-0.058421228
138	0xbd8830e4	-0.0664995
139	0xbcbf8e47	-0.023383273
140	0xbd60639f	-0.054782506
141	0x3db01603	0.085979484
142	0xbcb086c6	-0.02154864
143	0xbd081155	-0.033219654
144	0xbd55b7db	-0.05217729
145	0x3b234790	0.002491448
146	0xbd1b077c	-0.037848935
147	0x3cddc568	0.02707167
148	0x3d554dba	0.05207608
149	0xbe08003f	-0.13281344
150	0xbd8a06ee	-0.06739603
151	0xbdf0658e	-0.1173812
152	0xbe77e071	-0.24206711
153	0xbe34a4fc	-0.17641062
154	0xbd7665c1	-0.060155634
155	0xbe5b45b6	-0.21413311
156	0xbe3b82b1	-0.18311574
157	0xbe8ae1ad	-0.27125302
158	0xbdbdd2e4	-0.0926874
159	0xbd850cd7	-0.0649659
160	0xbe1deaf9	-0.15421666
161	0xbdee2563	-0.11628225
162	0xbd1d8458	-0.03845629
163	0xbde851a3	-0.11343696
164	0xbc91fb57	-0.017820043
165	0xbca662e9	-0.020310836
166	0xbd1c9ede	-0.038237445
167	0x3d011371	0.03151268
168	0x3b85a188	0.004078094
169	0xbd7a5b55	-0.061122257
170	0x3d12d558	0.03584799
171	0xbcc860ad	-0.024460161
172	0x3d9735cb	0.07383307
173	0xbb254af2	-0.0025221673
174	0x39b3f59a	0.00034324528
175	0xbcebe64a	-0.028796334
176	0xbc80eaee	-0.015737023
177	0x3bcf443a	0.006325272
178	0xbd8ad4d6	-0.067788765
179	0x3bd2416c	0.0064164903
180	0xbdbdd5d9	-0.09269304
181	0xbdaeab09	-0.08528716
182	0xbd7c4736	-0.06159135
183	0xbdd0da33	-0.10197868
184	0xbd8f8114	-0.070070416
185	0xbcdcc903	-0.026951319
186	0xbccea0e2	-0.0252232
187	0x3c471b88	0.01215256
188	0xbcd9ea8c	-0.026601098
189	0xbce8b12b	-0.028404793
190	0xbc7ac581	-0.015305878
191	0xbc332bd7	-0.010935745
192	0x3d31ac79	0.043377373
193	0xbcb46088	-0.022018686
194	0xbc51097d	-0.01275861
195	0x3d8fb37e	0.07016657
196	0xbcb6fa09	-0.022336023
197	0xbd74f9fe	-0.059808724
198	0x3da7e924	0.08198765
199	0x3d63162d	0.05544107
200	0x3d10d437	0.035358634
201	0xba861f25	-0.001023267
202	0x3cc5666c	0.02409669
203	0xbb74a981	-0.0037332478
204	0x3cd6ed18	0.026236102
205	0x3db6b8bb	0.08921953
206	0x3c6214d0	0.013798907
207	0xbda808ab	-0.08204778
208	0x3cfd37c0	0.030910373
209	0x3d0f786b	0.03502695
210	0xbd6c5361	-0.057696704
211	0x3c5234ce	0.012829972
212	0x3cec70a8	0.028862312
213	0x3ba5607f	0.0050469036
214	0x3cec1a5c	0.028821163
215	0xbb1bdda7	-0.0023783238
216	0x3b4f77d6	0.003165712
217	0x3bfb2349	0.0076641184
218	0xbcfc6860	-0.030811489
219	0x3c1e4a5e	0.009661285
220	0x3d661373	0.056170892
221	0x3d57990f	0.052636202
222	0xbd8fe1a4	-0.070254594
223	0x3d8bc50d	0.06824694
224	0x3d4a8dc4	0.049451604
225	0x3d021124	0.031754628
226	0x3d382566	0.04495754
227	0x3d969c7d	0.073540665
228	0xbc9126e9	-0.01771875
229	0xba49f919	-0.000770466
230	0x3c9aa717	0.018878503
231	0xbd1c86f6	-0.038214646
232	0xbd0303d4	-0.031986073
233	0xbcd558c5	-0.026043305
234	0x3cc12364	0.023576446
235	0xbd45529d	-0.04817449
236	0x3cdcb980	0.026943922
237	0x3cf5c819	0.03000264
238	0x3cfadbbc	0.030622356
239	0x3ae72a15	0.0017636443
240	0x3d7a5bb5	0.061122615
241	0x3cdaa921	0.026691975
242	0x3c9f1dfb	0.019423475
243	0x3e23d841	0.16000463
244	0x3dabac99	0.0838253
245	0x3b85f7ba	0.004088369
246	0x3d007daf	0.03136986
247	0xbd2d3584	-0.042287365
248	0xbcaa8df8	-0.02081965
249	0x3ce248f0	0.02762267
250	0xbd7abe95	-0.06121691
251	0x3aea7cfa	0.0017890029
252	0x3dd7639f	0.10517048
253	0x3cf230cb	0.029564282
254	0x3d5fcb0b	0.054636996
255	0xbc842a66	-0.016133498

encoder.2.bias f4 [32]
0	0x3c92c558	0.017916366
1	0x3c68576a	0.014180997
2	0xbd58d17f	-0.052934166
3	0xbca07948	-0.019589081
4	0x3ceeb8c5	0.02914084
5	0x3b7955fa	0.003804563
6	0xbc9a4c1b	-0.018835118
7	0xbbfd2433	-0.0077252625
8	0x3b2583d6	0.0025255582
9	0xbd38b630	-0.045095623
10	0xbc599688	-0.013280518
11	0xbb29dd50	-0.0025919266
12	0xbbf03d1f	-0.007331505
13	0xbd36d2cf	-0.044634636
14	0xbd0e17ab	-0.03469054
15	0xbd495e36	-0.049162112
16	0xbbab9892	-0.0052366937
17	0xbbeddf7e	-0.0072593084
18	0xbc286ad2	-0.010279374
19	0xbd2bf7d2	-0.041984387
20	0x3c9c6f2d	0.019095981
21	0xbd871263	-0.06595304
22	0xbd69a15a	-0.057038642
23	0x3c5b376c	0.013379913
24	0x3d0a5d24	0.033780232
25	0x3d226c44	0.03965403
26	0xbc46ca6a	-0.01213322
27	0xbd642597	-0.05569991
28	0x3c9e12ae	0.019296017
29	0xbd07040d	-0.032962848
30	0x3cf18c57	0.029485865
31	0x3bb51a22	0.005526797

decoder.0.weight f4 [16, 32, 3, 3, 3]
0	0xbc9679aa	-0.01836856
1	0x3c9fbec9	0.019500153
2	0x3cccb54a	0.02498879
3	0xbd3338ce	-0.043755345
4	0x3d0f91b6	0.03505107
5	0x3d3688f8	0.044564217
6	0xbd466e05	-0.048444767
7	0x3ce89a17	0.028393788
8	0x3d407032	0.046981998
9	0x3d8b2df3	0.067958735
10	0x3d3ff820	0.04686749
11	0x3bd5d1d1	0.006525256
12	0x3d75e67f	0.06003427
13	0x3ca75ccc	0.020429991
14	0x3e14578b	0.1448652
15	0x3ded376b	0.11582836
16	0x3ccf6558	0.02531688
17	0x3df7222a	0.12067063
18	0xbdf74c7d	-0.12075136
19	0xbcfa9fbf	-0.030593751
20	0xbce19f65	-0.027541826
21	0x3cb23ceb	0.021757564
22	0xbd90b784	-0.07066253
23	0x3caaa046	0.020828377
24	0x3e0280e4	0.1274448
25	0xbc037549	-0.008023568
26	0x3db42934	0.08796921
27	0x3dba7d39	0.091059156
28	0xbd056af8	-0.032572716
29	0xbda7b991	-0.08189691
30	0xbd42bd7b	-0.047543984
31	0x3ca502d8	0.020142958
32	0xbc465e11	-0.012107388
33	0x3cb0105c	0.021492176
34	0x3d8cf0fe	0.06881903
35	0xbd49696e	-0.04917281
36	0xbd573f39	-0.05255053
37	0x3d3e7fef	0.046508726
38	0x3d94cbd8	0.072654426
39	0xbd90f00f	-0.070770375
40	0xbc8886c9	-0.016665833
41	0x3d4fcfc2	0.050735243
42	0xbdb82ae6	-0.08992557
43	0x3c9c005e	0.019043144
44	0x3b16e102	0.0023022299
45	0xbea75723	-0.32683668
46	0xbe2c6974	-0.16837102
47	0x3d7b2dac	0.061322853
48	0xbe4292d2	-0.1900132
49	0xbe0092d5	-0.12556012
50	0x3d9ea046	0.077454135
51	0xbcdf4520	-0.027254641
52	0xba0a0127	-0.0005264454
53	0x3dc3e7ba	0.09565683
54	0xbcc26a9e	-0.02373248
55	0xbb478061	-0.003044151
56	0xbd5f4732	-0.054511257
57	0x3d5f72e2	0.05455292
58	0x3d9b8904	0.07594493
59	0x3cd45f5b	0.025924375
60	0x3dfba250	0.12286818
61	0x3d2f39bb	0.042779665
62	0x3d217970	0.039422452
63	0xbcd8eaa3	-0.026479071
64	0x3d35b07c	0.04435776
65	0x3bcf1c4f	0.0063205133
66	0x3b8238aa	0.00397404
67	0xbd680380	-0.056643963
68	0xbd00d280	-0.03145075
69	0x3de8bfd1	0.11364711
70	0xbd33d43d	-0.043903578
71	0x3de40aa7	0.11134844
72	0xbc49ddfb	-0.012320991
73	0xbd838c27	-0.06423216
74	0x3b6e7b93	0.0036389574
75	0x3d8098a2	0.062791124
76	0x3e1d4430	0.15358043
77	0x3e24dcb6	0.1609982
78	0xbea08400	-0.31350708
79	0x3d70c5ea	0.058782496
80	0x3e1ac490	0.15114045
81	0xbdcb50aa	-0.09927495
82	0xbcfe3d5f	-0.031035123
83	0xbbc58b27	-0.006028551
84	0xbd07a63c	-0.033117518
85	0xbc86248a	-0.016374845
86	0x3d6b7cda	0.057492115
87	0xbdde13f6	-0.10843651
88	0xb9bc8ac7	-0.00035961551
89	0xbc59c74c	-0.013292145
90	0x3c242e44	0.010020796
91	0xbca89a30	-0.020581335
92	0xbc4ecc83	-0.012622002
93	0x3c6d7bd0	0.014494851
94	0xbdc52dae	-0.09627853
95	0xbd94f6cc	-0.07273635
96	0xbc2b2c99	-0.010447645
97	0xbcb6fd5f	-0.022337614
98	0x3cee9f0c	0.029128574
99	0x3df43a37	0.11925166
100	0x3d17c6ae	0.03705471
101	0x3d22c68b	0.039740127
102	0x3d027e64	0.031858817
103	0xbbf93a4f	-0.007605828
104	0x3d09380c	0.033500716
105	0x3d86793b	0.065660916
106	0x3df1c906	0.1180592
107	0x3e0fc2e4	0.14039189
108	0x3c754412	0.0149698425
109	0xbd7aff17	-0.06127843
110	0x3dcf8d03	0.10134318
111	0xbcca24d9	-0.024675773
112	0x3c8106ea	0.015750367
113	0x3dd8831e	0.105718836
114	0x3d975121	0.07388521
115	0x3d6ef28e	0.058336787
116	0x3d4daa5d	0.0502113
117	0x3b874e17	0.004129182
118	0x3d5357fc	0.05159758
119	0x3ca6381e	0.02029043
120	0xbd881094	-0.06643787
121	0x3b8a924c	0.0042288657
122	0x3c4ad271	0.012379275
123	0xbc29d0a4	-0.010364685
124	0x3cc13efb	0.023589602
125	0x3d972a74	0.07381144
126	0xbd7ab47b	-0.061207276
127	0xbc707897	-0.014677188
128	0x3d2ac0ba	0.041687705
129	0xbe09b3cd	-0.13447495
130	0xbca09fc3	-0.01960743
131	0x39326c9e	0.00017015866
132	0x3ac2cbe6	0.0014861792
133	0x3dfd5a36	0.12370722
134	0x3d788a09	0.060678516
135	0xbc8a35ab	-0.016871294
136	0x3cce5d68	0.025191024
137	0x3da884ef	0.0822848
138	0x3cc48732	0.023990247
139	0xbd7d30eb	-0.06181423
140	0xbd1fe370	-0.03903526
141	0x3d3fb022	0.046798833
142	0xbd986567	-0.07441216
143	0xbde37760	-0.11106753
144	0x3d699213	0.057024073
145	0x3d8fcd39	0.07021565
146	0xbcdd0afc	-0.026982777
147	0x3d0fd69b	0.035116773
148	0x3e00e87f	0.1258869
149	0x3db6eaca	0.08931501
150	0x3d67a49d	0.05655347
151	0x3d65312c	0.055955097
152	0x3e0be662	0.13662103
153	0x3d4dc826	0.050239705
154	0xbd52a465	-0.05142631
155	0x3df48af3	0.11940565
156	0xbd8a592f	-0.06755292
157	0xbd937d1d	-0.07201598
158	0x3d7e228f	0.062044676
159	0xbd511a9f	-0.05105078
160	0xbaff87d4	-0.0019495436
161	0x3e304f6f	0.17217802
162	0xbd721ea4	-0.059111252
163	0xbb13de4b	-0.0022562917
164	0xbdce9177	-0.10086339
165	0xbd46c5d7	-0.04852852
166	0xbd49b01c	-0.049240217
167	0xbdd345a2	-0.10316016
168	0xbd9eea0c	-0.07759485
169	0xbd923efb	-0.07140919
170	0xbdbe6399	-0.092963405
171	0x3c3f5fa6	0.011680519
172	0xbca025bb	-0.019549241
173	0xbc631e9b	-0.013862277
174	0x3ced22ef	0.028947322
175	0xbd45702d	-0.048202682
176	0xbd18e981	-0.03733206
177	0x3d0e5443	0.034748327
178	0xbc82ddb3	-0.015974855
179	0x3d50ba34	0.050958827
180	0xbcc7e052	-0.024398956
181	0x3d7a7d73	0.061154794
182	0xbd80456e	-0.06263243
183	0x3d012e21	0.031538133
184	0x3dede56b	0.11616024
185	0xbcac565b	-0.021037271
186	0xbc242181	-0.010017754
187	0x3d8b4c42	0.068016544
188	0xbcb02026	-0.021499705
189	0x3af8dbe0	0.0018986426
190	0x3de980ba	0.11401506
191	0xbd532644	-0.051550165
192	0xbd68d2cf	-0.056841668
193	0x3c13f3f2	0.009030329
194	0xbdaf90b5	-0.085725226
195	0xbd777522	-0.06041444
196	0xbdbeedb3	-0.09322681
197	0xbd89417c	-0.06701943
198	0xbe074e0e	-0.13213369
199	0xbd7eca91	-0.0622049
200	0xbdc04ae6	-0.09389286
201	0xbdeb43e4	-0.114875585
202	0xbd8ecfe2	-0.06973244
203	0xbe06aeeb	-0.13152663
204	0xbe315ce3	-0.1732059
205	0x3c313ba0	0.010817438
206	0xbd7fb522	-0.0624286
207	0xbd8087ad	-0.06275878
208	0xbd32263d	-0.043493498
209	0xbcd97f74	-0.026550032
210	0xbe30c4cf	-0.17262577
211	0xbe1b00bc	-0.15136999
212	0xbe046a2c	-0.12931126
213	0xbdd73fa0	-0.105101824
214	0xbdacd3d4	-0.084388405
215	0xbdab42fd	-0.083623864
216	0x3ce63d59	0.028105425
217	0xbcdced49	-0.026968615
218	0xbba24b4f	-0.004952825
219	0x3c54dba6	0.012991821
220	0x3cb2dfa5	0.021835158
221	0x3d04fb4a	0.03246621
222	0x3cdb17ac	0.026744686
223	0x3cf23e6e	0.029570784
224	0xbd747207	-0.059679057
225	0x3cd1eaa6	0.025624584
226	0x3cd2857d	0.025698418
227	0xbc5205ac	-0.012818735
228	0x3b7db8ba	0.0038714842
229	0xbd396c57	-0.045269337
230	0xbba75ab2	-0.0051072473
231	0xbe23b859	-0.15988292
232	0xbdb594e9	-0.08866293
233	0xbe404b99	-0.18778838
234	0xbddc5efb	-0.107603036
235	0xbd5250be	-0.051346533
236	0x3bac7342	0.0052627632
237	0xbd23a83d	-0.039955366
238	0xbd8e843d	-0.06958816
239	0x3d0474b5	0.032337863
240	0xbd8ee440	-0.06977129
241	0xbc7f06ac	-0.015565556
242	0xbd924da2	-0.071437135
243	0x3cda2cd5	0.026632706
244	0xbd4a52a2	-0.04939521
245	0x3d458920	0.048226476
246	0xbd15fedf	-0.036620017
247	0xbd0d48bd	-0.034493197
248	0xbcea37cd	-0.028591061
249	0xbcf1c7b3	-0.02951417
250	0xbd3f5428	-0.046711117
251	0xbc3172a3	-0.010830554
252	0x3e19fff8	0.1503905
253	0xbdc51ee7	-0.09625035
254	0xbe10df8d	-0.14147778
255	0x3d50b01b	0.050949197

decoder.0.bias f4 [16]
0	0x3c29b0bb	0.010357077
1	0xbd026023	-0.031829964
2	0x3caf523a	0.021401513
3	0xbbc6ed30	-0.0060707554
4	0x3d0b3994	0.033990458
5	0xbc31319a	-0.010815049
6	0xbcce9a7b	-0.025220146
7	0x3b6f8603	0.0036548383
8	0xb99c5f70	-0.00029825745
9	0xbd5544e9	-0.05206767
10	0x3ce0c7ef	0.027439086
11	0xbd5e14df	-0.054219123
12	0xbd6ba645	-0.057531614
13	0x3b6f4796	0.0036511174
14	0x3bbc969d	0.005755259
15	0xbca2885c	-0.019840412

decoder.2.weight f4 [1, 16, 10, 3, 3]
0	0x3bd5d506	0.0065256385
1	0xbb9b41fb	-0.00473809
2	0x3b8ccc03	0.004296781
3	0x3b0bde7c	0.0021342328
4	0x3ba74205	0.0051043057
5	0x3b48673f	0.0030579118
6	0x3b57f2cc	0.0032951115
7	0xbb67e9e7	-0.003538722
8	0x3b183335	0.002322388
9	0xba010ca4	-0.0004922843
10	0x3a5a2c70	0.0008322662
11	0x3b1aef2f	0.00236411
12	0xb9e30bbf	-0.00043305565
13	0x3a8dac77	0.0010808845
14	0x39b3d7dc	0.00034302368
15	0x3bd1b47d	0.0063996897
16	0x39935286	0.0002809951
17	0xbb79c6d3	-0.0038112893
18	0xba6ecedc	-0.0009109804
19	0x3ab77db6	0.0013999257
20	0xbbe1ad40	-0.006887108
21	0xba11db9e	-0.00055640365
22	0x3b5612d7	0.0032665038
23	0xbbc13e9c	-0.005897356
24	0xbbb80932	-0.0056163305
25	0x3b5a24fd	0.0033286207
26	0xbbcf354f	-0.0063234936
27	0xb7f357dd	-2.9008772e-05
28	0xbb949a02	-0.0045349607
29	0xbbfe9a13	-0.007769832
30	0x3b5f235c	0.0034048175
31	0xbbd5ff02	-0.0065306434
32	0xba5e951a	-0.0008490846
33	0x3aec2d7d	0.0018018928
34	0xbb75d3cd	-0.0037510276
35	0xb96aad6d	-0.00022380585
36	0x39a4bd4d	0.00031421558
37	0x3c07bf00	0.008285284
38	0x3c062bce	0.008189155
39	0xbaacb9f0	-0.0013177972
40	0x383bfe9a	4.482139e-05
41	0xba8a3ae6	-0.0010546118
42	0x3b9c201c	0.00476457
43	0xba8cfc61	-0.0010756367
44	0xbb1507f9	-0.0022740348
45	0x3b5aabf2	0.0033366648
46	0x3aed10a5	0.0018086625
47	0xbbe021d6	-0.006839971
48	0xbb0925ef	-0.0020927151
49	0x3b9070b1	0.004407965
50	0xb8840afb	-6.296296e-05
51	0x3c003797	0.007825754
52	0xbb14647f	-0.0022642908
53	0xbbb5da23	-0.0055496856
54	0xbc06ef6b	-0.008235793
55	0xbba5606b	-0.0050468943
56	0xba9b24d9	-0.0011836543
57	0xbc432fb3	-0.011913228
58	0xbbe119eb	-0.0068695447
59	0x3a1bb884	0.0005940276
60	0xbb85af87	-0.0040797624
61	0xbb1f3b4e	-0.0024296823
62	0xbc6a1cd5	-0.014289101
63	0xbd0e3a92	-0.034723826
64	0xbd0628cb	-0.032753747
65	0xbcba5627	-0.022746159
66	0xbd603dd6	-0.05474647
67	0xbd1e74fa	-0.038685776
68	0xbc8e395c	-0.017361335
69	0xbddeac24	-0.10872677
70	0xbd229dbe	-0.039701216
71	0xbcb95f9c	-0.022628598
72	0x3ce04fd9	0.027381824
73	0xbd2566b4	-0.04038115
74	0xbc4daf4a	-0.012553999
75	0xbc3f977b	-0.011693831
76	0xbd8dfabf	-0.06932592
77	0xbc8c65bc	-0.017138354
78	0x3d5cc430	0.053898036
79	0x3cb32eb6	0.02187286
80	0x3d031267	0.03199997
81	0x3d3bd3be	0.04585623
82	0x3bd24b76	0.006417687
83	0x3d664c4d	0.05622511
84	0xbba83c0a	-0.0051341103
85	0xbd313c09	-0.043270145
86	0x3c72ed5e	0.014827101
87	0x3d9f3b4a	0.0777498
88	0x3c88e452	0.016710434
89	0x3d8c6614	0.06855407
90	0x3b5c8940	0.0033651143
91	0xbb95cee8	-0.0045717843
92	0xbbb3b7f0	-0.0054845735
93	0x3a1c58a3	0.00059641356
94	0xbc25704d	-0.010097575
95	0xbb882ec3	-0.004155965
96	0x3b8131c6	0.003942701
97	0xbc7aa909	-0.01529909
98	0xbbd16707	-0.0063904556
99	0xbc037671	-0.008023844
100	0xbbe7c704	-0.007073285
101	0xbc0bb061	-0.008525939
102	0xbbcaf5c2	-0.0061938474
103	0xb9b1194e	-0.00033778924
104	0xba68105c	-0.00088525354
105	0x3ab6acd7	0.0013937008
106	0x3bbfb13e	0.0058499863
107	0xbc053e20	-0.008132488
108	0x3c164f42	0.00917417
109	0x3c328e84	0.010898236
110	0x3b1b9aa5	0.0023743298
111	0x3b846d10	0.0040413216
112	0x3bd79b17	0.0065797674
113	0x3b60fa43	0.0034328855
114	0x3b892bde	0.0041861376
115	0xbac0ddf4	-0.0014714585
116	0x3bd2ac26	0.006429213
117	0x3cdf2814	0.02724079
118	0x3c96646e	0.018358435
119	0x3cd03565	0.025416085
120	0x3c18499e	0.009294895
121	0x3be53fc3	0.0069961264
122	0x3c7f330a	0.0155761335
123	0x3c268e20	0.010165721
124	0x3c1bbe77	0.00950586
125	0x3c9a72f6	0.018853646
126	0x3c92e0e4	0.017929502
127	0x3c37c612	0.011216657
128	0x3c8e8f69	0.017402368
129	0x3c70d2e6	0.01469872
130	0x3b63bec5	0.0034751159
131	0x3c7b3120	0.0153315365
132	0x3ca44999	0.020054625
133	0x3c445ef1	0.011985526
134	0x3cad5643	0.021159297
135	0x3cdc2bea	0.026876409
136	0x3c589687	0.013219482
137	0x3ccdfc6d	0.02514478
138	0x3c8b819a	0.017029572
139	0x3bf45d99	0.007457447
140	0x3c9be5ca	0.01903047
141	0x3cc92921	0.024555745
142	0x3c430acf	0.011904432
143	0x3c540f44	0.012943093
144	0x3b71382d	0.0036807165
145	0x3b9835ce	0.004645086
146	0xba00e73a	-0.0004917268
147	0x3bdf8093	0.006820747
148	0x3bb08ff7	0.0053882557
149	0x3c63388c	0.013868462
150	0x3cb00b3d	0.021489734
151	0x3c769e79	0.015052431
152	0x3c5585e5	0.013032411
153	0xbd007d69	-0.0313696
154	0xbb0a9568	-0.0021146182
155	0xbd0c832d	-0.034304786
156	0xbceb2f9c	-0.028709225
157	0xbc83d0af	-0.016090719
158	0xbbd20997	-0.0064098346
159	0xbbe5d5cd	-0.0070140124
160	0xbc2fb480	-0.010724187
161	0xbbdd1e46	-0.0067479936
162	0x3d097526	0.033558987
163	0x3d1800cf	0.037110146
164	0x3d83fae7	0.0644434
165	0xbd1e0498	-0.0385786
166	0x3c96bad1	0.018399628
167	0x3c9cfaab	0.019162497
168	0xbdb01712	-0.0859815
169	0xbd15e4ee	-0.036595277
170	0xbc935aa5	-0.017987559
171	0xbe5ac69c	-0.21364826
172	0xbd3799fc	-0.044824585
173	0x3d57ed9d	0.05271684
174	0xbe1ddd1e	-0.15416381
175	0xbcc5ae79	-0.024131047
176	0x3c9c430e	0.019074943
177	0x3d1cd829	0.038292084
178	0x3ca2b150	0.01985994
179	0xbc8e108c	-0.017341875
180	0x3ce87fed	0.028381312
181	0xbc321f35	-0.010871698
182	0x3822d210	3.8819446e-05
183	0x3c5cd45b	0.013478364
184	0xbb5c53d5	-0.0033619304
185	0x3c50e167	0.012749053
186	0x3bf79b7c	0.007556377
187	0x3c64bbd5	0.013960798
188	0x3ca5d3ad	0.020242536
189	0xbc5d5346	-0.0135086235
190	0xbc6f824c	-0.014618468
191	0x3d3dca18	0.04633531
192	0x3ba0e5dd	0.0049102143
193	0xbc938b9f	-0.018010912
194	0x3d677c8e	0.05651527
195	0xbbd3db7a	-0.0064653726
196	0xbca19b9e	-0.019727524
197	0x3ce5aaff	0.028035639
198	0xbca1e03e	-0.019760247
199	0x3c742234	0.014900733
200	0x3d8115bb	0.06302973
201	0xbba1e3d5	-0.00494049
202	0xbc6583c5	-0.014008467
203	0x3d128a60	0.035776496
204	0xbc964147	-0.018341674
205	0xbd2985bf	-0.041387316
206	0x3d378fda	0.044814922
207	0xbcd9e350	-0.026597649
208	0xbbc08024	-0.0058746506
209	0x3d09bf96	0.033629976
210	0x3b47ef95	0.0030507792
211	0x3a97bc0b	0.0011576427
212	0x3c509573	0.012730944
213	0x3be08f54	0.0068530235
214	0x3ae026fe	0.0017101464
215	0xba04c40f	-0.00050646154
216	0xbd089d56	-0.033353172
217	0x3993a098	0.00028157677
218	0x3d0a0c1d	0.03370296
219	0xbc88689d	-0.016651446
220	0xbc084874	-0.008318055
221	0x3cf06609	0.02934553
222	0xbd57a15b	-0.052644115
223	0x3bc0dcf0	0.005885713
224	0x3c3e1002	0.011600496
225	0xbc1dd640	-0.009633601
226	0xbc1c69d0	-0.009546712
227	0xbc3a7861	-0.01138124
228	0xbccc9557	-0.024973555
229	0x3bb3eae7	0.005490649
230	0x3c4fae4f	0.012675836
231	0xbcec06b3	-0.028811788
232	0x3c2b3dbb	0.010451729
233	0xbb5a7997	-0.0033336633
234	0x3bded639	0.0068004397
235	0x3c2ea6a0	0.010659844
236	0xbd43eda9	-0.047834072
237	0x3bba91e4	0.005693661
238	0x3d37901a	0.04481516
239	0xbb89941e	-0.004198565
240	0xbc69d177	-0.014271132
241	0x3ca1e4aa	0.019762356
242	0xbb65b8e1	-0.0035052823
243	0x3d9826a3	0.07429244
244	0xbc318ff5	-0.010837545
245	0xbda137b5	-0.078719534
246	0x3e0659e1	0.13120224
247	0x3c99b9a1	0.018765273
248	0xbcf69fff	-0.030105589
249	0x3de43640	0.1114316
250	0x3dfa2ab0	0.12215173
251	0xbca14dab	-0.019690355
252	0x3ebb3fca	0.36572105
253	0x3de2255e	0.110422835
254	0x3b6a09d8	0.0035711434
255	0x3e2771cc	0.16352004
