src/video_conv3d.pth (torch, 121852 bytes, 7 tensors)

encoder.0.weight f4 [16, 1, 3, 3, 3]
0	0x3e210847	0.15725814
1	0x3ba03928	0.004889626
2	0xbd5e637d	-0.0542941
3	0x3d812629	0.063061066
4	0xbd8121ed	-0.06305299
5	0xbe448683	-0.19191937
6	0x3ecaef94	0.3963591
7	0x3cb45d1e	0.022017058
8	0x3cae9d64	0.021315284
9	0xbf438252	-0.7637073
10	0x3e9aa5de	0.30204672
11	0x3e07302e	0.13201973
12	0xbed955a9	-0.42448166
13	0x3ea67c6d	0.32516804
14	0x3eb5b1e6	0.35487288
15	0xbee45081	-0.4459267
16	0x3e42e21c	0.19031566
17	0x3d958c08	0.073020995
18	0x3e06f8e9	0.13180889
19	0xbe7175b0	-0.2358005
20	0x3d1e0e96	0.03858813
21	0xbe894413	-0.2680975
22	0xbe856d39	-0.26059893
23	0xbe12c1aa	-0.1433169
24	0xbe6764eb	-0.22597091
25	0xbe8c5cba	-0.27414495
26	0xbe7092c6	-0.2349349
27	0xbc46d4cb	-0.012135695
28	0xbdeccf7c	-0.11563012
29	0xbb93a15b	-0.004505319
30	0xbd83703a	-0.0641789
31	0xbd34e5f9	-0.04416463
32	0xbf345c1f	-0.70453066
33	0x3d8c468d	0.06849394
34	0xbdb74b8d	-0.08949957
35	0xbe8cd880	-0.27508926
36	0xbdcc93b5	-0.099891104
37	0x3e887b44	0.26656544
38	0x3e8883ab	0.26662955
39	0x3e1d3271	0.15351273
40	0xbddfad81	-0.10921765
41	0xbeb0c61b	-0.34526142
42	0x3e0c75e6	0.1371685
43	0x3e36cdc0	0.17851925
44	0xbf5c3b3c	-0.86027884
45	0xbdd06698	-0.10175818
46	0x3c0cc896	0.008592745
47	0x3e635a8a	0.22202507
48	0xbf88b7f5	-1.0681139
49	0x3ca7bd2a	0.020475943
50	0xbf5fa502	-0.87361157
51	0xbe1d9f7b	-0.15392868
52	0xbeb16add	-0.34651843
53	0xbf3f756b	-0.7478854
54	0xbd1204ad	-0.03564899
55	0xbdac70fa	-0.08419986
56	0xbd9f97b9	-0.07792611
57	0x3e1cdd66	0.15318832
58	0xbdbb7b6b	-0.091543995
59	0xbc1e3f5b	-0.00965866
60	0x3d9eef91	0.077605374
61	0xbe9205ea	-0.28520137
62	0x3e3b053f	0.1826372
63	0xbe1e202f	-0.15441965
64	0x3d660e7c	0.056166157
65	0x3d0035fa	0.031301476
66	0x3db1508b	0.086579405
67	0xbe6d2a66	-0.23160705
68	0x3e05a58a	0.1305143
69	0x3ec9fd85	0.39451233
70	0xbce84e37	-0.028357608
71	0x3e9b47b8	0.30328155
72	0x3cb6e1b1	0.022324415
73	0x3d827245	0.063694514
74	0xbc872521	-0.016497197
75	0xbd861b37	-0.065481596
76	0xbec96a17	-0.39338753
77	0xbdd1ba4a	-0.1024061
78	0xbe1b46f2	-0.15163782
79	0xbf197c34	-0.59955144
80	0xbe0742c7	-0.13209067
81	0x3e290fd6	0.16509947
82	0x3e4081fe	0.18799588
83	0x3e58ae7b	0.21160309
84	0x3e9074f5	0.2821423
85	0x3de3a15a	0.1111476
86	0x3dda40fb	0.10656925
87	0x3e180626	0.14846095
88	0x3e6dc752	0.23220566
89	0x3e64dc98	0.22349775
90	0xbe92b468	-0.28653264
91	0x3d0cb9b0	0.034356773
92	0xbdc67143	-0.09689572
93	0xbe08cb7c	-0.13358873
94	0xbf0d23a2	-0.55132496
95	0xbe5ef1b5	-0.21771891
96	0xbe8d0552	-0.27543122
97	0xbf38d774	-0.72203755
98	0xbdf5b170	-0.11996734
99	0xbebdc24f	-0.37062308
100	0x3e63d44b	0.22248952
101	0xbe922bcb	-0.28549036
102	0x3cbf2497	0.023332877
103	0x3e5535b0	0.20821261
104	0xbe8983c4	-0.26858342
105	0xbe1cb4a9	-0.15303291
106	0xbfa4f173	-1.2886184
107	0xbdec60a9	-0.11541874
108	0x3c00cf70	0.007861957
109	0x3e869c17	0.26290962
110	0xbec7ba2e	-0.3900923
111	0xbcd6e797	-0.026233478
112	0x3d7968e5	0.06089105
113	0x3d3ce5c1	0.046117548
114	0x3dfa7203	0.12228777
115	0xbe378850	-0.17923093
116	0x3d8ea363	0.06964757
117	0xbeb49fad	-0.35278073
118	0xbd57bda0	-0.052671075
119	0xbd856633	-0.065136336
120	0xbe69070d	-0.22756596
121	0x3cdedb3d	0.02720415
122	0xbda799bf	-0.081836216
123	0xbe8fcace	-0.28084415
124	0xbd202779	-0.039100144
125	0x3d0e9558	0.034810394
126	0x3e833538	0.2562654
127	0xbef3b4e0	-0.47598934
128	0x3eece282	0.46266562
129	0xbe11072c	-0.14162892
130	0xbe44bdd6	-0.19213042
131	0xbeb55050	-0.35412836
132	0xbe56c9d2	-0.20975426
133	0x3f366ffd	0.7126463
134	0xbea37ad5	-0.3192965
135	0x3df60031	0.12011755
136	0xbd6c56b1	-0.057699863
137	0xbe34bf0c	-0.17651004
138	0xbda34a6b	-0.079731785
139	0xbe3c11e0	-0.18366194
140	0xbed2de2d	-0.41185132
141	0xbe0c93aa	-0.13728204
142	0x3d0eda38	0.03487608
143	0xbf0ccbe1	-0.54998595
144	0xbd225727	-0.039633896
145	0x3dc058e9	0.09391958
146	0xbd3e8a47	-0.04651859
147	0x3d8ea6fd	0.06965444
148	0x3e5e7661	0.21724845
149	0xbf06d3eb	-0.5266711
150	0x3d8d8e81	0.06911946
151	0x3ec20c48	0.37899995
152	0x3c4e6334	0.012596894
153	0xbe5f56c0	-0.21810436
154	0x3c9989a0	0.018742383
155	0x3e828e7d	0.25499335
156	0x3ebdebe6	0.3709404
157	0x3d555c4e	0.05208998
158	0xbf837c66	-1.0272338
159	0xbf0b3e89	-0.54392296
160	0xbe2b1815	-0.16708405
161	0x3e4e0946	0.20120725
162	0x3dd030de	0.10165571
163	0xbda1db26	-0.07903127
164	0xbe835b5b	-0.25655636
165	0x3c79d033	0.0152473925
166	0x3eb24bc9	0.34823444
167	0x3d0b4d34	0.034009174
168	0x3e92a56a	0.28641826
169	0x3ed6de7d	0.4196662
170	0x3de2c112	0.110719815
171	0x3e922e75	0.2855107
172	0x3c5a8e6e	0.013339622
173	0x3cea905e	0.028633293
174	0xbe99dc1f	-0.30050752
175	0xbef037a2	-0.46917444
176	0xbe1c6668	-0.1527344
177	0xbea7685a	-0.326968
178	0xbe411bd4	-0.18858272
179	0xbf230fdf	-0.6369609
180	0xbf2c1449	-0.6721845
181	0xbd4ffb3f	-0.050776716
182	0x3e18207f	0.14856146
183	0xbef22519	-0.47293928
184	0x3dd8cb2f	0.10585629
185	0x3d538073	0.05163617
186	0xbdef69ff	-0.11690139
187	0xbe958b39	-0.2920778
188	0x3da7e9bb	0.081988774
189	0xbf1bb564	-0.60823655
190	0xbea3f725	-0.32024494
191	0xbebb733b	-0.3661135
192	0xbe5abdcc	-0.21361464
193	0xbe5b32a8	-0.21406043
194	0xbe92e7be	-0.2869243
195	0xbeb56d1f	-0.35434815
196	0xbe929345	-0.28627983
197	0xbee020f5	-0.43775144
198	0xbd99e434	-0.075142294
199	0x3e13415d	0.14380403
200	0x3df502e0	0.11963439
201	0xbdbde9fe	-0.09273146
202	0xbdfaf585	-0.122538604
203	0xbdb00d85	-0.08596329
204	0xbc26d61b	-0.010182883
205	0x3e0f9b9a	0.14024201
206	0x3c2aec07	0.01043225
207	0x3e6e43db	0.23268072
208	0x3e68e029	0.2274176
209	0xbdbdc0d0	-0.09265292
210	0x3ea5a363	0.32351217
211	0x3eab564f	0.33464286
212	0xbcdcc98e	-0.026951578
213	0x3dbf006a	0.09326251
214	0x3e9d28ee	0.3069529
215	0x3d9d87cc	0.07691917
216	0xbd3f3da8	-0.04668966
217	0xbec5c122	-0.3862391
218	0xbede4e6e	-0.43419212
219	0xbd3f392b	-0.04668538
220	0xbea2a0d7	-0.31763336
221	0xbe98a76f	-0.29815242
222	0x3d38bd88	0.045102626
223	0xbdf73a6b	-0.12071689
224	0xbdeacb76	-0.11464588
225	0x3e67e11f	0.2264447
226	0x3e8e63bb	0.27810463
227	0xbe314d52	-0.17314652
228	0x3ebe2a9c	0.37141883
229	0xbddb5bf3	-0.10710897
230	0x3ddc7809	0.107650824
231	0xbe4a9726	-0.19784221
232	0xbd584593	-0.052800726
233	0x3e05d251	0.1306851
234	0xbd827373	-0.063696764
235	0xbe4c0ac2	-0.19925979
236	0x3e376d0b	0.1791269
237	0xbeef89e7	-0.467849
238	0xbeac20c6	-0.33618754
239	0x3f09dd5e	0.53853405
240	0x3e0fc8a4	0.14041382
241	0x3e5e235e	0.21693179
242	0xbd2726f8	-0.040808648
243	0xbceb57ab	-0.028728327
244	0xbb30818e	-0.002693269
245	0x3e99e495	0.30057207
246	0x3dd0c9bd	0.101947285
247	0x3e3943e4	0.18092304
248	0xbdb21ff5	-0.086975016
249	0xbce916e6	-0.028453302
250	0x3dc1cf68	0.09463388
251	0xbddeba7f	-0.10875415
252	0x3e202914	0.1564067
253	0x3df3d534	0.119059
254	0x3adf5220	0.0017038025
255	0xbd84ed90	-0.06490624

encoder.0.bias f4 [16]
0	0xbe8565a4	-0.26054108
1	0x3ce8d868	0.028423503
2	0xbdc6e6d6	-0.09711997
3	0x3d8b81fa	0.068119004
4	0xbdb64b8a	-0.08901127
5	0xbe0a8cd4	-0.13530284
6	0x3cfb38d8	0.030666754
7	0xbca7ae27	-0.020468784
8	0xbe6568e4	-0.22403294
9	0xbda8a174	-0.0823392
10	0xbdcf2c34	-0.10115853
11	0xbecf6e56	-0.40513867
12	0xbe800259	-0.2500179
13	0xbe810788	-0.25201058
14	0xbe1fbf6d	-0.15600367
15	0xbe47308e	-0.19452116

encoder.2.weight f4 [32, 16, 3, 3, 3]
0	0xbfce0093	-1.6093925
1	0x3ea5097e	0.32233804
2	0xbe474c21	-0.19462635
3	0xbecb5bad	-0.3971838
4	0xbe0de9a3	-0.13858657
5	0x3e0850f9	0.13312139
6	0x3dfe0aa5	0.12404374
7	0x3d868f76	0.06570332
8	0x3eb5496d	0.35407582
9	0xbfa21ad2	-1.2664435
10	0xbf8c8962	-1.0979426
11	0x3e4260b6	0.18982205
12	0x3e264bc1	0.16239835
13	0xbec7d5ff	-0.39030454
14	0xbdb29f15	-0.08721749
15	0x3e7c46e6	0.2463642
16	0xbdbe79cb	-0.09300574
17	0x3e6b6ecc	0.22991484
18	0x3edb568f	0.42839476
19	0x3f18b794	0.5965512
20	0x3f374e92	0.71604264
21	0xbd53b891	-0.051689688
22	0xbe2600a6	-0.16211185
23	0xbddf6cbf	-0.109094135
24	0xbf2d08e1	-0.67591673
25	0xbf9b5482	-1.2135165
26	0xbfc09b43	-1.5047382
27	0xbeec0330	-0.46096182
28	0xbfa15fb7	-1.2607335
29	0x3f2ec0fe	0.6826323
30	0x3df29fae	0.11846863
31	0xbd808f64	-0.062773496
32	0xbe009f12	-0.1256068
33	0xbf10e434	-0.5659821
34	0xbe90e855	-0.28302255
35	0xbed92065	-0.42407528
36	0xbeae6710	-0.34063005
37	0xbe191d3d	-0.1495256
38	0xbe3d89bf	-0.18509577
39	0xbe538f97	-0.20660244
40	0x3f16e53a	0.5894352
41	0xbf77227b	-0.9653699
42	0x3f240353	0.6406757
43	0x3dc1a35d	0.09454987
44	0xbf2b599e	-0.6693362
45	0xbf753ee2	-0.95799077
46	0x3e928feb	0.28625426
47	0xbfa66e9d	-1.3002506
48	0xbf9d4ed4	-1.2289681
49	0xbda7c10f	-0.0819112
50	0xbf24995a	-0.64296496
51	0xbdedb7ca	-0.116073206
52	0xbdee1ff2	-0.11627187
53	0xbea3dc28	-0.32003903
54	0x3ea864ff	0.32889554
55	0xbe2337cc	-0.15939254
56	0xbcdd8451	-0.027040632
57	0x3e2bd351	0.1677983
58	0x3e1fdbbf	0.1561117
59	0xbe4d2a0a	-0.20035568
60	0x3e4f3036	0.20233235
61	0x3ebc0f1c	0.36730278
62	0x3f170ebf	0.59006876
63	0x3e7c4d8a	0.24638954
64	0xbe96dda1	-0.29465964
65	0xbd3c4de2	-0.045972712
66	0xbf86b37c	-1.0523524
67	0xbda4559e	-0.08024143
68	0x3e408d51	0.18803908
69	0xbf26d07a	-0.6516186
70	0x3e6ebfe5	0.2331539
71	0x3ed1b65c	0.40959442
72	0x3f0a491d	0.5401781
73	0xbc108c13	-0.008822459
74	0xbc96b7fb	-0.018398276
75	0xbdaeb558	-0.08530682
76	0xbf1010ed	-0.56275827
77	0xbeb775f9	-0.35832193
78	0xbf610529	-0.878985
79	0xbf3e43e8	-0.74322367
80	0xbf32c22d	-0.6982754
81	0x3f0f66df	0.56016344
82	0xbf85187a	-1.0398095
83	0xbeb43731	-0.35198358
84	0xbd821309	-0.06351287
85	0xbe38152e	-0.1797683
86	0xbea29829	-0.31756714
87	0x3e1346f4	0.14382535
88	0xbd2690bb	-0.04066537
89	0x3e453a15	0.19260438
90	0xbddc85bf	-0.107676975
91	0xbdcf295f	-0.10115313
92	0xbe574cd9	-0.21025409
93	0xbf3904a9	-0.72272736
94	0xbe852bb9	-0.2600992
95	0x3e870881	0.26373675
96	0xbdae6ca1	-0.08516813
97	0x3e804eaf	0.2506003
98	0x3d0c3e46	0.034239076
99	0x3e397b12	0.18113354
100	0xbe8e64ed	-0.27811375
101	0x3eb786eb	0.35845122
102	0xbe9ee5d5	-0.31034723
103	0xbe82d578	-0.2555349
104	0x3e823f35	0.25438848
105	0x3f5b7678	0.85727644
106	0x3da9b53f	0.08286523
107	0xbd72bcb0	-0.059261978
108	0x3e5a1c41	0.2129984
109	0x3e500bfb	0.2031707
110	0x3dfdcf1c	0.123930186
111	0xbce064d4	-0.027391829
112	0xbb647f07	-0.0034865753
113	0x3e2bfa18	0.16794622
114	0xbea1ea4f	-0.31624076
115	0x3e9d6939	0.3074434
116	0xbd60e001	-0.054901127
117	0xbfd476f4	-1.6598802
118	0x3f12acc6	0.5729488
119	0x3e9f2974	0.31086314
120	0xbec10cc7	-0.3770506
121	0x3d17c0fe	0.037049286
122	0xbe2e382d	-0.17013617
123	0xbe8ce66e	-0.27519554
124	0x3e46751e	0.19380614
125	0xbc72f4ba	-0.014828855
126	0xbea25a58	-0.31709552
127	0xbe157773	-0.14596348
128	0xbf78274f	-0.9693498
129	0x3f3d34b1	0.73908526
130	0x3dd0ee48	0.102016985
131	0xbdc09490	-0.09403336
132	0xbed86447	-0.42264006
133	0xbdd2b4de	-0.10288404
134	0xbf5c9965	-0.8617156
135	0xbedf2c99	-0.43588713
136	0xbf90276b	-1.126203
137	0xbf1972d5	-0.59940845
138	0x3ea533b0	0.32265997
139	0xbe26e5b7	-0.16298567
140	0xbeaf09c1	-0.3418713
141	0xbdd4fb7d	-0.1039953
142	0x3e6936be	0.22774789
143	0xbeb6844d	-0.35647812
144	0x3e7f2434	0.24916154
145	0xbfb4055a	-1.4064133
146	0x3ee1865b	0.44047818
147	0x3d0837a6	0.033256195
148	0xbec52b1c	-0.38509452
149	0xbf212101	-0.62940985
150	0x3f8803d4	1.0626168
151	0x3da6ed12	0.08150686
152	0xbeb15cd7	-0.34641144
153	0x3e1a873f	0.15090655
154	0xbea04725	-0.3130428
155	0xbfaaf337	-1.3355473
156	0xbea747e7	-0.32672045
157	0xbdaf5006	-0.08560185
158	0xbe1e4d1c	-0.15459102
159	0x3db68456	0.0891196
160	0xbe4b6428	-0.19862425
161	0xbfab2006	-1.3369148
162	0xbede9ca9	-0.43478897
163	0x3ef6bde7	0.4819176
164	0x3d2f8eeb	0.042860907
165	0x3de69e7c	0.11260697
166	0x3d148083	0.03625537
167	0xbe343588	-0.17598546
168	0x3de3b96d	0.111193515
169	0x3e745b4e	0.23862955
170	0x3d030cee	0.031994753
171	0x3eb8f892	0.36127144
172	0x3d9ed6ff	0.07755851
173	0xbf0fb5c1	-0.5613671
174	0xbdab38cc	-0.083604425
175	0xbda23079	-0.07919402
176	0x3f2a57f2	0.66540444
177	0xbdd6ea5d	-0.1049392
178	0xbe89ddf6	-0.26927155
179	0xbf89d902	-1.076935
180	0x3eee19bd	0.46504012
181	0xbf5304ab	-0.82429
182	0xbe2b49dd	-0.16727395
183	0xbea4d0b7	-0.32190487
184	0xbe27ed4d	-0.16399117
185	0xbe2838de	-0.16427943
186	0x3e5e49f3	0.21707897
187	0xbea0a683	-0.31377038
188	0xbe46d2ad	-0.19416304
189	0xbd54afea	-0.051925577
190	0x3e530fa6	0.20611438
191	0xbe0154f5	-0.12630065
192	0x3e71ff01	0.23632433
193	0x3e018660	0.12648916
194	0xbd85d1da	-0.06534167
195	0xbe864410	-0.26223803
196	0xbf23ecf8	-0.6403346
197	0x3cad15af	0.021128504
198	0x3ef71caf	0.4826407
199	0x3e911ea9	0.28343704
200	0xbda5b212	-0.08090605
201	0xbd739d1c	-0.059476003
202	0x3eccdadf	0.40010735
203	0xbd7576e0	-0.05992782
204	0xbe3f294c	-0.18668097
205	0x3de09549	0.10965974
206	0xbee94f10	-0.45568132
207	0x3cec4d0b	0.02884533
208	0x3e7dd936	0.2478989
209	0xbfb5eca8	-1.4212847
210	0xbfb0db1b	-1.3816866
211	0x3f3d6e6f	0.73996633
212	0xbf31e842	-0.6949502
213	0x3e1ca834	0.1529854
214	0xbe990926	-0.29889792
215	0xbfea1e76	-1.8290546
216	0x3e992dee	0.29917854
217	0xbe0d1e4b	-0.13781087
218	0x3db604f7	0.08887666
219	0xbe0a35ba	-0.13497058
220	0x3eee79a6	0.46577185
221	0x3e98ff78	0.29882407
222	0x3d3aac38	0.045574397
223	0x3e89e44a	0.26931983
224	0xbe36476b	-0.17800681
225	0x3f013cda	0.5048348
226	0xbb539a7e	-0.003228813
227	0xbe1dd37a	-0.15412703
228	0x3eaba6d5	0.3352572
229	0xbd3fc13d	-0.046815146
230	0xbeba0c37	-0.36337444
231	0x3dbdfa1a	0.09276219
232	0x3f5d1714	0.8636334
233	0xbf5b7fa5	-0.85741645
234	0x3dbce4ca	0.092233256
235	0xbef0b2f6	-0.47011536
236	0xbf29a94d	-0.6627396
237	0x3ec5b1ef	0.38612315
238	0xbf74d3cb	-0.9563567
239	0x3e8639fc	0.26216114
240	0x3e89a789	0.26885632
241	0xc01d32a6	-2.4562163
242	0x3e1d8344	0.15382105
243	0x3e419788	0.18905461
244	0xbe0aca14	-0.13553649
245	0x3f00ad2b	0.50264233
246	0x3f2a9b7a	0.6664349
247	0x3ee675ad	0.45011654
248	0xbe8026d1	-0.25029615
249	0xbd861a20	-0.06547952
250	0xbd5560de	-0.052094333
251	0xbe19e523	-0.15028815
252	0x3ee2d047	0.44299528
253	0x3dad3b4d	0.08458576
254	0xbee8ed25	-0.45493427
255	0xbe692874	-0.22769338

encoder.2.bias f4 [32]
0	0xbdf55056	-0.119782135
1	0xbd1a9f14	-0.037749365
2	0xbe959530	-0.29215384
3	0xbee98eab	-0.4561666
4	0x3e06e9e4	0.1317516
5	0x3a80ed95	0.000983643
6	0xbe806fc5	-0.25085273
7	0xbe10631f	-0.14100312
8	0xbddc20c1	-0.10748435
9	0xbd201486	-0.039082073
10	0xbd674084	-0.05645801
11	0x3e83c370	0.25735044
12	0xbdb02c26	-0.08602171
13	0xbb202bf5	-0.0024440263
14	0x3cb26d8e	0.021780755
15	0xbf04504d	-0.5168503
16	0x3e44c4bc	0.19215673
17	0xbf43a633	-0.76425475
18	0xbe932cca	-0.2874511
19	0x3c863f65	0.01638765
20	0xbe634632	-0.22194746
21	0xbe94860e	-0.29008526
22	0xbeacf9e2	-0.33784395
23	0xbf9cd7f1	-1.22534
24	0xbeb41ac7	-0.3517668
25	0xbdcb9e1b	-0.099422656
26	0xbecc2e57	-0.39879104
27	0xbf2b0a89	-0.6681295
28	0x3eff6d6f	0.4988818
29	0x3ee419ed	0.4455103
30	0xbe9368d3	-0.28790912
31	0xbf113842	-0.5672647

decoder.0.weight f4 [16, 32, 3, 3, 3]
0	0x3eb86c7c	0.36020267
1	0xbe178bc7	-0.14799415
2	0xbf01ffe3	-0.5078108
3	0xbe3fe576	-0.18739876
4	0x3edfad6e	0.43687004
5	0xbf39e168	-0.7260957
6	0x3e6f01e8	0.23340571
7	0x3e8d58f4	0.27606928
8	0xbdb791e9	-0.08963377
9	0x3e6e1f06	0.23254022
10	0xbea7300a	-0.32653838
11	0x3f2cb9f7	0.6747126
12	0xbfa392ba	-1.2779152
13	0xbbfdfab0	-0.0077508315
14	0x3f27ff45	0.65623885
15	0x3e4671de	0.19379374
16	0xbdd76102	-0.1051655
17	0xbeb1e7bb	-0.3474711
18	0xbf4b6817	-0.79455703
19	0xbf473f15	-0.7783063
20	0x3e4839ba	0.19553271
21	0xbfb67d1e	-1.4256933
22	0xbfda1945	-1.7038962
23	0x3d4a084e	0.049324326
24	0xbdddc045	-0.10827688
25	0xbecd86cf	-0.40141913
26	0xbe7616e9	-0.24032177
27	0xbfb60be7	-1.4222382
28	0x3e24464e	0.16042444
29	0x3dc57f85	0.09643463
30	0x3d8a5aa3	0.06755569
31	0xbed1b990	-0.40961885
32	0xbef03fbc	-0.46923625
33	0xbdd2e58c	-0.10297689
34	0xbe643c76	-0.22288689
35	0x3ec84aea	0.39119655
36	0xbdaca01a	-0.084289744
37	0x3c3c2cab	0.011485259
38	0xc0108ba7	-2.2585237
39	0x3de7c817	0.11317461
40	0x3e358c58	0.17729318
41	0xbf34fc98	-0.7069793
42	0x3e4f7618	0.20259893
43	0x3d671b85	0.05642273
44	0x3f4fe093	0.8120205
45	0x3f4f452f	0.8096494
46	0x3db09d0a	0.08623703
47	0xbf1c6438	-0.6109042
48	0xbfa5fbfa	-1.2967522
49	0xbe0c585b	-0.1370558
50	0xbf8bd931	-1.0925657
51	0xbdae2cd6	-0.085046455
52	0xbeabc436	-0.33548135
53	0xbf989ed8	-1.1923475
54	0xbd6f3721	-0.058402184
55	0x3ea1c5a5	0.31596103
56	0xbc719075	-0.014743914
57	0xbc6f7249	-0.01461465
58	0xbca21e59	-0.019789862
59	0x3e60e881	0.21963693
60	0x3f111eaf	0.56687444
61	0x3ec3b3a3	0.3822299
62	0x3cb18bd7	0.021673126
63	0xbd7a9567	-0.061177637
64	0xbd20a72a	-0.03922192
65	0x3dc7b0c0	0.09750509
66	0xbe99b32a	-0.30019504
67	0x3e93d5b2	0.28873974
68	0xbd1027c6	-0.03519418
69	0x3d9c1f13	0.076231144
70	0xbe93490b	-0.28766665
71	0xbf56f0d0	-0.839612
72	0xbcf64c05	-0.030065546
73	0x3e1d62fd	0.15369792
74	0xbf08051f	-0.53132814
75	0xbfb587b8	-1.4182043
76	0xbf95b85d	-1.1696888
77	0xbf54ee9c	-0.8317659
78	0x3d8e4b0e	0.06947909
79	0x3ebdfbb6	0.37106103
80	0xbe990ca8	-0.29892468
81	0xbf4ac9ec	-0.7921436
82	0xbf17bbb5	-0.59270793
83	0xbf011e34	-0.5043671
84	0x3d94c7cc	0.07264671
85	0x3ecd77fe	0.4013061
86	0xbf065b98	-0.5248351
87	0x3e21193c	0.15732282
88	0x3dc738a5	0.09727601
89	0xbf84663b	-1.0343698
90	0xbe157490	-0.14595246
91	0xbe96e751	-0.29473355
92	0xbfcc6524	-1.5968366
93	0xbe0a2193	-0.1348937
94	0xbf8a2818	-1.0793486
95	0xbe0c77ef	-0.13717626
96	0xbe61e1fa	-0.2205886
97	0x3cf9cb69	0.030492501
98	0xbeb54884	-0.35406888
99	0xbed72ee1	-0.42027953
100	0xc00d99a0	-2.2125015
101	0xc0290090	-2.6406593
102	0xbfd63654	-1.673533
103	0xbf5ba7a1	-0.85802656
104	0x3df7c827	0.12098723
105	0x3e6c99e3	0.23105578
106	0xbe26a0b7	-0.16272245
107	0xbf8518c7	-1.0398186
108	0x3e3bfea1	0.18358852
109	0xbf3139d8	-0.6922889
110	0xbf666340	-0.89995193
111	0xbde44e9b	-0.11147805
112	0xbd24ee54	-0.04026635
113	0xbecdc0f2	-0.40186268
114	0x3db13e06	0.08654408
115	0x3e62de9c	0.22155231
116	0xbd91c293	-0.0711719
117	0xbd799de7	-0.060941603
118	0x3c4b5e9f	0.012412696
119	0xbe44a678	-0.19204128
120	0xbe0519fd	-0.12998195
121	0xbe6f79d8	-0.23386323
122	0xbf6d55f0	-0.92709255
123	0x3e02e08a	0.12780967
124	0xbf170871	-0.58997256
125	0x3ef3179d	0.47478953
126	0x3e55876c	0.2085244
127	0x3e6d2333	0.23157959
128	0x3f29431b	0.6611802
129	0xbed808a1	-0.42194083
130	0xbe0c0f0e	-0.13677618
131	0xbec84583	-0.39115533
132	0x3e59da42	0.21274665
133	0x3c404783	0.0117358
134	0xbf22dd6c	-0.6361911
135	0xbd59d5df	-0.05318248
136	0x3ee941d2	0.4555803
137	0x3e19c643	0.15017037
138	0xbd6858b7	-0.05672523
139	0x3d33aad2	0.04386408
140	0x3d026ec4	0.031843916
141	0xbefd8d6f	-0.49521968
142	0xbe10561c	-0.14095348
143	0xbe7a47e6	-0.2444149
144	0xbc67c8bc	-0.01414698
145	0xbed5f120	-0.41785526
146	0xbec9b002	-0.39392096
147	0x3d92b935	0.07164232
148	0xbe079a34	-0.13242418
149	0x3e1f053c	0.1552934
150	0xbe874640	-0.26420784
151	0x3c361307	0.011112935
152	0x3e0e86ff	0.13918684
153	0xbdc1e39c	-0.09467241
154	0xbf494dc5	-0.7863429
155	0xbf658695	-0.8965848
156	0xbfcd6033	-1.6044983
157	0x3c838088	0.0160525
158	0x3e5b5a02	0.21421054
159	0xbf936c17	-1.1517361
160	0xbed3bb86	-0.41354007
161	0x3ef312c9	0.4747527
162	0xbdf2b896	-0.11851613
163	0xbe956c2e	-0.29184097
164	0x3e38587d	0.18002506
165	0x3e4c5de6	0.19957694
166	0x3bd9412f	0.006630085
167	0x3e915690	0.28386354
168	0x3e3c3eaf	0.18383287
169	0x3e72a9a2	0.23697522
170	0x3e45da2f	0.19321512
171	0xbf0598f9	-0.5218654
172	0x3f12cb27	0.57341236
173	0x3e3b5d57	0.18297325
174	0x3ed073a1	0.40713218
175	0xbdf34a6c	-0.11879429
176	0x3e43ba0e	0.19113943
177	0xbdaf6361	-0.08563877
178	0x3c8cfb4a	0.017209668
179	0xbe2e81ab	-0.17041652
180	0xbe2c8b1c	-0.16849941
181	0x3f1ceeaa	0.6130167
182	0xbf4ee8aa	-0.8082377
183	0x3e3fd38c	0.18733042
184	0x3e731313	0.23737745
185	0xbe6922c2	-0.22767165
186	0xbe4ec66e	-0.20192882
187	0xbe706cfa	-0.23479071
188	0x3ec4382b	0.38324103
189	0xbe8ec35b	-0.2788342
190	0xbf28f8fa	-0.6600491
191	0xbf28d27e	-0.65946186
192	0x3df7caf3	0.12099256
193	0xbe8f1276	-0.27943772
194	0xbfacc79d	-1.3498417
195	0x3e09ac77	0.13444696
196	0xbd25cbae	-0.040477447
197	0xbf0dc73c	-0.5538213
198	0xbdd6311c	-0.104585856
199	0xbefc757b	-0.4930838
200	0xbd9df7d9	-0.07713289
201	0x3e39a702	0.18130115
202	0x3e1da45f	0.15394734
203	0xbe4d059a	-0.20021668
204	0x3e82be0f	0.25535628
205	0x3e464970	0.19363952
206	0x3e069e02	0.13146213
207	0x3e90db50	0.28292322
208	0x3f305fae	0.68895996
209	0xbd335817	-0.04378518
210	0xbee3fc9f	-0.44528672
211	0xbf23578a	-0.6380545
212	0xbe8a2e51	-0.26988462
213	0x3d1673cd	0.03673153
214	0xbe828b47	-0.25496885
215	0x3d828f2d	0.06374965
216	0xbec14c97	-0.37753746
217	0xbf4ac4e5	-0.7920669
218	0xbf45628c	-0.77103496
219	0x3f0ceb9c	0.5504701
220	0xbea8deda	-0.32982522
221	0x3dd243d3	0.10266843
222	0xbf6447a6	-0.89171827
223	0xbfe33b00	-1.775238
224	0x3db3690a	0.08760269
225	0xbeb872e9	-0.3602517
226	0xbf075f81	-0.528801
227	0xbe5a29b4	-0.21304971
228	0x3efdcb30	0.49569082
229	0xbebb8653	-0.3662592
230	0xbf096ef0	-0.536849
231	0xbfadd7ec	-1.3581519
232	0xbfa572a4	-1.292561
233	0xbd6917d5	-0.056907494
234	0xbe9764d0	-0.295691
235	0xbf329801	-0.6976319
236	0x3f1a8af3	0.6036827
237	0xbe2d20d3	-0.16907053
238	0xbee4c239	-0.4467943
239	0x3eb5ac7f	0.35483167
240	0x3eab8acb	0.33504328
241	0xbe3044df	-0.17213772
242	0xbd9d7895	-0.07689015
243	0xbd1b56de	-0.03792464
244	0x3c3035df	0.010755031
245	0x3d086923	0.03330339
246	0xbd2f65a4	-0.04282154
247	0xbb615b3d	-0.0034386658
248	0xbd1d8cd7	-0.038464393
249	0xbcc1849a	-0.0236228
250	0x3cdcf253	0.026971018
251	0x3c6289a1	0.013826759
252	0xbc1b9972	-0.009497033
253	0xbc168657	-0.009187303
254	0xbbfc668e	-0.007702655
255	0xbd1a80ad	-0.03772037

decoder.0.bias f4 [16]
0	0xbdbd4705	-0.092420615
1	0x3eb467d0	0.35235453
2	0x3f59842c	0.84967303
3	0xbf186042	-0.5952188
4	0x3ec03648	0.37541413
5	0x3e471592	0.19441822
6	0x3ea01d02	0.3127213
7	0xbf3f550c	-0.74739146
8	0xbee80864	-0.45318902
9	0xbf28db0d	-0.65959245
10	0xbfc097fd	-1.5046383
11	0xbeb61056	-0.35559338
12	0xbebd727d	-0.3700141
13	0xbda8db43	-0.08244946
14	0xbe845d38	-0.2585237
15	0xbe6e8937	-0.23294531

decoder.2.weight f4 [1, 16, 10, 3, 3]
0	0x3cf38f08	0.029731289
1	0xbdea07ac	-0.114272445
2	0xbd998a64	-0.07497099
3	0x3c5385be	0.012910305
4	0xbc49e9cb	-0.012323807
5	0xbbb06e59	-0.005384248
6	0xb862ba97	-5.4056374e-05
7	0x3b0b41b8	0.0021248888
8	0xbb90b0a5	-0.004415589
9	0x3bd3c73c	0.0064629596
10	0xbb1d099a	-0.0023962022
11	0xb95cf0c4	-0.00021070527
12	0xbca2c336	-0.019868474
13	0xbc6e9c31	-0.014563606
14	0xbc2c92e8	-0.010533072
15	0x3cc520a0	0.024063408
16	0x3bee5936	0.0072738184
17	0x3a2ed9e9	0.00066700444
18	0xbb8e9d8b	-0.0043522767
19	0x3cbc33dc	0.022973947
20	0x3cbb0887	0.022831215
21	0x3d191a2a	0.037378468
22	0xbc6c17be	-0.014409957
23	0x3cc9797c	0.024594061
24	0xbc241569	-0.01001487
25	0xbcb3413b	-0.02188169
26	0x3d1b489d	0.037911046
27	0x3bdbe4ba	0.006710616
28	0x3bbde96c	0.0057956483
29	0xbc9f6a83	-0.019459968
30	0x3be3297c	0.0069324356
31	0x3cbb7d9d	0.022887046
32	0xbc0dbdf4	-0.008651245
33	0x3bd165a4	0.0063902903
34	0x3cb48c2c	0.022039495
35	0x3cbb7b31	0.02288589
36	0x3c2d1277	0.010563484
37	0xbc0c6e2f	-0.008571192
38	0x3ba622fc	0.0050700884
39	0x3bb7570a	0.0055950927
40	0xbc94f22c	-0.018181883
41	0x3c863354	0.016381897
42	0x3ceb93a5	0.028756926
43	0xbc3f8e27	-0.011691607
44	0xbc1c49cd	-0.00953908
45	0xbbc92272	-0.0061381394
46	0xbb5819c4	-0.0032974342
47	0x3a21881a	0.00061619433
48	0xbab0efd8	-0.0013499213
49	0x3b8eac28	0.0043540187
50	0x3d12265c	0.035681114
51	0x3c16f216	0.009212991
52	0xbd2ae6c0	-0.041723967
53	0x3a8c9b9b	0.0010727526
54	0xbcb5cbe4	-0.02219195
55	0x3c734514	0.0148480125
56	0xbc65b106	-0.014019256
57	0x3b2a35dd	0.0025972046
58	0x3caeb579	0.021326767
59	0x3e4fca84	0.20292097
60	0xbca2b326	-0.019860815
61	0xbe3d8d7f	-0.18511008
62	0xbabba93f	-0.0014317407
63	0xbc1f50de	-0.00972387
64	0x3c8c3365	0.01711435
65	0xbb96bac9	-0.0045999032
66	0x3b4e04ed	0.0031436041
67	0xbb59bc4d	-0.0033223808
68	0x3e11ada5	0.14226396
69	0x39c17245	0.00036896966
70	0xbe0bd5e1	-0.13655807
71	0xbb1d29ca	-0.0023981207
72	0x3bde6a58	0.0067875795
73	0xbbbd0959	-0.0057689366
74	0xbbf531a3	-0.007482724
75	0xbb41d06c	-0.0029573692
76	0xbd55cd5f	-0.05219781
77	0xbc47db03	-0.012198213
78	0x3a93aa75	0.001126601
79	0xbb02262a	-0.0019859173
80	0x3df4fcf4	0.119623095
81	0xbc2ef73a	-0.010679061
82	0x3c4e2c48	0.0125838
83	0xbcce0034	-0.025146581
84	0x3bdea620	0.006794706
85	0x3cd93a4f	0.026517062
86	0x3d99392f	0.0748161
87	0xbb838964	-0.004014181
88	0x3c666440	0.014061987
89	0x3b91d668	0.004450608
90	0x3c92937d	0.017892594
91	0xbd281292	-0.041033335
92	0xb8aa5bf8	-8.123362e-05
93	0xbc091c6b	-0.008368592
94	0xbc5911c3	-0.013248864
95	0x3ce3307d	0.027733082
96	0xbcb93042	-0.022606019
97	0xbd16991a	-0.036767103
98	0xbd3df8b6	-0.046379767
99	0x3a3343f5	0.00068384345
100	0xbc79f405	-0.015255933
101	0x3ba9ba12	0.005179652
102	0xbd20fdcd	-0.039304543
103	0xbcf44927	-0.029820038
104	0x3b40baa1	0.0029408114
105	0xbc8e1be6	-0.017347287
106	0xbc98bc76	-0.018644553
107	0x3cb01cbc	0.021498077
108	0x3e22f5a2	0.15914014
109	0x3c0898c6	0.008337205
110	0x3cf44c8e	0.02982166
111	0xbc66a135	-0.014076521
112	0x3b9e0468	0.0048223026
113	0xbca799ab	-0.020459017
114	0xbca2e5a2	-0.019884888
115	0xbd0624f5	-0.03275009
116	0x3d6feb14	0.058573797
117	0xbc0f652e	-0.00875215
118	0x3c6a48a6	0.014299547
119	0x3a541858	0.00080907857
120	0xbc131b87	-0.008978731
121	0x3b3ef952	0.0029140306
122	0xbca4a126	-0.020096373
123	0x3c4f1c35	0.012641002
124	0x3d13de21	0.03610051
125	0xbcee8a68	-0.029118732
126	0x3c87d625	0.016581604
127	0x3c983dd8	0.018584177
128	0xbc9c56ff	-0.019084452
129	0x3c6540c0	0.013992488
130	0x3d11607f	0.035492416
131	0xbbad01c9	-0.005279754
132	0xbc70a77d	-0.01468837
133	0x3ca820e7	0.020523502
134	0xbce58a59	-0.02802007
135	0xbc8eb824	-0.01742179
136	0x3d0e8e2a	0.034803547
137	0x3bd7256a	0.0065657394
138	0xbcb074fd	-0.02154016
139	0x3d201415	0.03908165
140	0xbc4b282f	-0.012399717
141	0xbd4b8e86	-0.049696468
142	0x3db597d6	0.08866851
143	0xbcba07ca	-0.022708792
144	0xbe066fa7	-0.1312853
145	0x3e4c8107	0.19971095
146	0x3b06be9b	0.0020560387
147	0xbe0ecd1a	-0.13945428
148	0x3e39e6b7	0.18154417
149	0x3b57b23d	0.0032912635
150	0xbe9eed97	-0.31040642
151	0x3ea04c22	0.31308085
152	0x3c244671	0.01002656
153	0xbc9c2cd1	-0.019064339
154	0x3c85d73a	0.01633798
155	0x3ae637cc	0.0017564236
156	0xbc239126	-0.009983337
157	0x3dd54ab2	0.104146376
158	0x3c8b943f	0.017038463
159	0xbd8ded94	-0.0693008
160	0x3c9ed506	0.019388687
161	0x3a219276	0.0006163487
162	0x3c418bdc	0.01181313
163	0xbc9db237	-0.019250019
164	0x3c2b54c4	0.010457221
165	0x3d756c79	0.0599179
166	0xbca42a9d	-0.02003985
167	0xbb8c278b	-0.004277175
168	0x3c8fe48e	0.017565038
169	0xbca02ed6	-0.019553583
170	0xbb8f795b	-0.0043784804
171	0xbd2c2321	-0.04202569
172	0x3d47e58f	0.04880291
173	0x3c81c4eb	0.015840968
174	0x3d585299	0.052813146
175	0x3d6b93a3	0.057513844
176	0xbcb4039e	-0.021974381
177	0xbb21ba9e	-0.0024677883
178	0xbbcf9955	-0.0063354173
179	0x3c046139	0.00807982
180	0x3bc949eb	0.006142845
181	0x3ab80f6e	0.0014042684
182	0xbb8fc6f3	-0.0043877303
183	0xbc273ac8	-0.010206886
184	0xbbb801df	-0.0056154574
185	0x3c2b75e8	0.010465123
186	0x3aed26a5	0.0018093182
187	0xbc2601b8	-0.010132246
188	0xbb2b66cf	-0.0026153808
189	0x3adc65fb	0.001681506
190	0xbbf1c4f1	-0.0073782136
191	0xbbccbac3	-0.0062478497
192	0xbcfdcc51	-0.030981215
193	0xbc81e2b8	-0.015855178
194	0x3c49e498	0.012322567
195	0xbc1d0f82	-0.009586217
196	0xbc3120c9	-0.010811039
197	0xbb154ed9	-0.0022782593
198	0xbc828993	-0.015934741
199	0x3c640668	0.013917543
200	0x3b842754	0.0040330086
201	0xb900ffc3	-0.0001230231
202	0x3bab674d	0.0052308203
203	0xbc4a5b8a	-0.012350926
204	0x3a8f5cde	0.0010937711
205	0x3b07ceca	0.002072262
206	0xbc1c94d6	-0.00955697
207	0xbc8c3d5e	-0.017119106
208	0xbc8fee80	-0.01756978
209	0x3bfbf5e0	0.0076892227
210	0xbc05ddfb	-0.0081706
211	0xbc8a8f5e	-0.016914066
212	0x3c57f3d1	0.013180689
213	0xbc3d66e6	-0.011560177
214	0xbb73ba53	-0.0037189915
215	0xbb89d0ef	-0.004205815
216	0x3b0b6b66	0.0021273731
217	0x3b7ce939	0.003859116
218	0x3c49c639	0.012315326
219	0xbadccddd	-0.001684602
220	0x3ba1655d	0.0049254135
221	0x3c23d75e	0.010000078
222	0xbc315493	-0.010823387
223	0xbc042d5d	-0.008067456
224	0xbb7d8f0c	-0.003869
225	0xbb529610	-0.0032132901
226	0x3bee2eb3	0.0072687506
227	0x3c5119c7	0.012762493
228	0x3ba08bcd	0.004899478
229	0xbbe17529	-0.0068804217
230	0xbc22b80a	-0.009931574
231	0x3b9a8604	0.004715683
232	0x3b1c12ce	0.002381492
233	0xbc9c0b9e	-0.019048508
234	0x3b65ca72	0.0035063294
235	0x3d1c9b0b	0.038233798
236	0x3d30f8c7	0.043206003
237	0x3b606b08	0.0034243483
238	0x3d0a571d	0.033774484
239	0xbc3b69be	-0.011438785
240	0x3b8fc27f	0.0043871994
241	0x3c33ebec	0.010981541
242	0x3b973331	0.004614257
243	0x3b783f25	0.0037879434
244	0x3b342900	0.0027490258
245	0xbae0373a	-0.0017106303
246	0x3bca479a	0.0061730864
247	0x3d30a8c2	0.04312969
248	0x3c5b0bbd	0.013369498
249	0xbb692a05	-0.0035578024
250	0x3ab7f740	0.0014035478
251	0xbc35206d	-0.011055094
252	0xbb322df4	-0.0027188035
253	0x3bbec92c	0.0058223214
254	0xbb9aabd5	-0.004720191
255	0x3c6c9949	0.014440843
