src/video_conv3d.pth (torch, 121852 bytes, 7 tensors)

encoder.0.weight f4 [16, 1, 3, 3, 3]
00000000: 41ba 32bb d9e3 e6bd 9e0e 0dbd c5d4 093e
00000010: a3bd 463e c911 e8bd 7ff0 883b 24d3 52be
00000020: f6fe 6cbe ddf9 3bbe 4aac 9bbc 0ce4 2ebe
00000030: f5a9 0a3e 8783 adbd e7e3 a7be a4d1 4cbe
00000040: a47f 9cbd 8ebf 813e 7326 f4bd 709f 683e
00000050: a6e8 413e 28ec df3d e60b 33be 77cd 253e
00000060: 9396 7e3d 6af0 9a3d 1504 19bd 757c 623d
00000070: b858 e0bd ae1a 7e3c 9aac 0a3e f916 c1ba
00000080: 3de3 533c a8c3 52bd b08a 25be 8df3 923e
00000090: 78b5 01be cc95 64ba 5de2 fc3d 9fa4 893e
000000a0: a1ec cfbc 3c29 013c 0235 903d 2796 7f3d
000000b0: 90e3 4a3e 7cea b5be 447a 41bd a4b7 21bd
000000c0: 0264 5ebe 5102 29bd f61c 3fbe 7716 75be
000000d0: 8b26 b63d 9db9 493e f9b2 f6be 9c53 bbbd
000000e0: 5e20 653e 97eb febc e935 113e 8710 733d
000000f0: c5b6 333d b7a2 b93d de39 74bd 73fb 503e
00000100: 326d 163e 360b 86be 20d1 2fbe 780b 6dbd
00000110: d202 d3bc 0a18 e5bd 5719 4e3e 9462 813d
00000120: 90d3 ebbd 6ec6 a43c 6bf0 2abe 87a1 ab3e
00000130: 52e5 6fbe cd14 8abc 1653 2cbd d133 d9be
00000140: e6ba 7b3e 4a28 1fbe 0e26 81be 5b45 26bc
00000150: d8a1 d0be cf55 8cbd c8c2 743c ae26 0dbe
00000160: 28f1 2bbe b66a 503d f0a3 863d 9553 873d
00000170: 9c4e 383d f968 d6bd 758a 113e f37a 04be
00000180: 15eb e0bb 2382 b93a ddf3 583d c4f2 e73d
00000190: c581 243e 891f 223e 07bb 673e 6d29 fcbe
000001a0: c831 f43d fb10 653e 05de 54bd 03b0 9b3e
000001b0: 824d 74be c53e 42bc 8500 e33c 4ac5 18bd
000001c0: 6d30 20be 32d5 d7bd 9f09 efbd 684f 5dbe
000001d0: b715 14be 5142 b73d 82c6 ecbd 994d 00be
000001e0: 0776 823d 74c7 cc3d c10d d3bd a00c e9bd
000001f0: a940 5bbd 2a26 a43d 7176 133e 48fe 403e
00000200: 9552 b73c 8690 4f3e 26b0 293e 7cfa 463e
00000210: 1654 633e 4c0b 6a3e 6a6a 1ebb fbca 913e
00000220: 8596 1d3e 5b70 993d 5cf8 3b3e a273 6dbd
00000230: 0c9c fa3d ea49 60bd 02b0 eabd f876 ebbd
00000240: 1f23 5fbe 6bdc 243d bd9e ec3d 8cf3 a03b
00000250: 52c3 adbc 57f8 123c 9fbd 983d 0cb1 3f3e
00000260: 550f 28be 3366 92be 76e1 3f3e 8604 8c3d
00000270: b120 70be 6f08 2bbe 655d 35be aa7f a7bd
00000280: 6c65 43be 4f1e 003e d620 8a3e 8978 2cbe
00000290: 3c44 57be f915 673e 5744 f3bd 40bd 063c
000002a0: f15d 76bd 687d 6f3e b392 633e abaf 8f3d
000002b0: f863 8e3d 32b0 f63c a9b9 79be bccf 87be
000002c0: ce01 623e 37fc f53c 76f8 85be 4992 5dbe
000002d0: a03d 8bb9 4366 5cbe cb6a 68be 52d0 133e
000002e0: 7cbc fb3d b17a 7ebe 5f71 29be 5787 16be
000002f0: da55 f3bc 7422 01be 962c 693d 877d 47bd
00000300: 1b79 3bbd 1208 80bd 66e0 063e 0d40 26be
00000310: 230a 03be ac8f 4c3e 5413 47be 9e29 05be
00000320: a144 06be fdd9 cbbe b090 9dbe 7835 053e
00000330: e4fa 3f3d 4145 35be 067c 6ebe 7b89 6cbd
00000340: 5c89 e3bd c722 593e 8a78 c4be 180d 4ebe
00000350: a818 303e 212f 0d3e df2f 903e 0cb7 72be
00000360: 5fa0 d6bd c45e 01be 0beb c7bd 6001 1cbd
00000370: c850 083d e7b5 aebd 80eb 77bd d26a 893c
00000380: a6a9 0bbe e044 7c3d 1bbc 983e dad3 823e
00000390: 7458 ee3c 90de 573e 9fb0 b33e 8207 203e
000003a0: 741c 1b3e 243a 2f3d 0306 0fbe 0965 6dbe
000003b0: df47 7dbe 74a0 7b3d 988c 3dbd 8c67 b8be
000003c0: 4a91 bf3c e698 d1bc 25ce a8be dd01 e5bd
000003d0: e04f d03d 8b7d 443e a331 183e 7127 293e
000003e0: c1ce e8bd 0fc0 2dbd db51 9c3e ecb2 863e
000003f0: 4286 2d3e 8b9c 0cbe 4d61 633e 4765 0fbe
-0.002727166 -0.11273927 -0.03443777 0.13460071 0.19408278 -0.11331517 0.00417906 -0.20588356
-0.23144135 -0.18357034 -0.019003052 -0.1707918 0.13541396 -0.084723525 -0.32791063 -0.20001847
-0.07641533 0.25341457 -0.11921396 0.2271707 0.18936405 0.10933715 -0.17485008 0.1619166
0.062155318 0.075653866 -0.03735741 0.055294473 -0.10954422 0.015509291 0.13542405 -0.0014731578
0.012932596 -0.051456124 -0.16166186 0.2870144 -0.12666881 -0.0008719831 0.12347863 0.26883408
-0.025381388 0.007883366 0.070413604 0.062399056 0.1981337 -0.3553046 -0.047235742 -0.039481774
-0.21717837 -0.041261975 -0.18663391 -0.23934351 0.0889407 0.19699712 -0.4818342 -0.091468066
0.22375628 -0.031118197 0.14180721 0.059341934 0.043875474 0.090642385 -0.0596255 0.2040842
0.14690092 -0.26180428 -0.17169619 -0.057872266 -0.02575818 -0.11186226 0.20126854 0.063176304
-0.11514962 0.02011415 -0.16693275 0.33521673 -0.23427323 -0.016855622 -0.042071424 -0.42422345
0.24583015 -0.15542713 -0.25224346 -0.010148372 -0.40748477 -0.06852304 0.014939018 -0.13784286
-0.16791213 0.050883017 0.06574237 0.06607739 0.044996843 -0.10469241 0.14212973 -0.12937526
-0.0068639615 0.0014153164 0.05296694 0.11325601 0.16065128 0.15832342 0.22629939 -0.49250355
0.119235575 0.22369759 -0.051969547 0.30407724 -0.23857692 -0.011855786 0.027710209 -0.037297525
-0.15643473 -0.10538711 -0.11671757 -0.21612322 -0.14461409 0.08948196 -0.115613 -0.12529601
0.06370168 0.0999898 -0.10305358 -0.11379361 -0.05352846 0.08015092 0.1440065 0.18847
0.022378245 0.20269975 0.16571102 0.1943149 0.22200045 0.22855872 -0.0024172314 0.28475174
0.1538945 0.07492133 0.1835646 -0.057971604 0.12236795 -0.05475799 -0.11459352 -0.11497301
-0.21790741 0.04024927 0.115537144 0.0049118455 -0.0212113 0.008970342 0.07458042 0.18719882
-0.16412099 -0.28593597 0.1873835 0.068368 -0.23449971 -0.16702436 -0.17711408 -0.08178647
-0.19081658 0.12511562 0.26978177 -0.16842856 -0.21022123 0.22566976 -0.11878269 0.008223832
-0.060148183 0.23387682 0.2222393 0.07015928 0.06952661 0.030113313 -0.2438723 -0.26525676
0.22071001 0.030027492 -0.26166123 -0.21637835 -0.0002655806 -0.21523385 -0.22696988 0.14434937
0.1229181 -0.2485149 -0.16547154 -0.14700066 -0.029704023 -0.12610799 0.056927286 -0.048703697
-0.045769792 -0.06251539 0.13171539 -0.16235371 -0.12796836 0.19976681 -0.19440967 -0.13004157
-0.13112117 -0.3981475 -0.3077445 0.13008678 0.046870127 -0.177022 -0.23289499 -0.0577483
-0.111101836 0.21204673 -0.38373214 -0.20122182 0.17196906 0.1378751 0.28161523 -0.2370264
-0.10479807 -0.12633806 -0.09761628 -0.03808725 0.033280164 -0.08530789 -0.060527325 0.016774569
-0.13638934 0.06158912 0.29831013 0.25552255 0.029094912 0.21080995 0.3509569 0.15627864
0.15147573 0.042780057 -0.13967137 -0.23183073 -0.24734448 0.061432317 -0.04627666 -0.360165
0.023384709 -0.025585603 -0.32969776 -0.11181996 0.10171485 0.19188516 0.14862685 0.16518952
-0.1136756 -0.04241949 0.305312 0.26308382 0.16945747 -0.13731591 0.22205086 -0.14003478

encoder.0.bias f4 [16]
00000000: 5016 03bc 0133 91bd e938 73bc fd07 b9bd
00000010: 1fa6 0ebd 6ffd f7bc b793 de3d e0d6 d53d
00000020: 8763 a3bc f88f ecbb 17bb 59be 4291 95bd
00000030: 065e 8f3d 99d7 babd dbb1 34bd 801a 8b3c
-0.008000925 -0.07089806 -0.014845111 -0.09034727 -0.034826394 -0.030272214 0.10868018 0.10441375
-0.01994492 -0.007219311 -0.21262775 -0.07303096 0.070003554 -0.09123153 -0.04411493 0.01698041

encoder.2.weight f4 [32, 16, 3, 3, 3]
00000000: c16a 0d3d 1c88 2fbe f85b c8ba ac25 bcbd
00000010: 2c86 b73d 9d2d 35be c7e7 46bd 0230 29be
00000020: 113a 8c3d 1cc3 02bd 89b5 61be 2963 77be
00000030: cfff d33d d981 c23d 9153 8fbd 7246 8fbd
00000040: 595c 263d 2860 353b 7058 85be 0ad2 95bd
00000050: 5d02 c1bd 0a65 143e 0216 c63d ef87 e5be
00000060: b9f2 81bd f6b4 c23c eb0a f7bc 9a52 50bd
00000070: 7b3a d73c 8996 103e b714 183e aae3 9f3d
00000080: 100f 5a3e 9183 d63d 5ee9 ed3d 2438 6d3e
00000090: 4f58 88bd 7ee0 e83d 343a f53d c8e2 1a3e
000000a0: 4d23 c03d a2ca ed3c dcae 8b3e ce2a 4d3e
000000b0: e675 4f3e aae6 9dbe 6641 bbbc c806 e23d
000000c0: 5e42 f13c f5a7 8f3d ac12 0c3d 27f2 9c3c
000000d0: 55d2 6e3c e2c5 7f3e 7c8e 1e3d e99d a7bd
000000e0: eab9 36bc 6b1f 86bc 26e8 dabd 0951 e5bd
000000f0: aeb3 bb3d 026a 003c c059 c2bd 7492 bd3d
00000100: 404a 2dbe 25cd 91bd e72f c83d 9d1c 88be
00000110: 470d 093d 5033 b23b f3cf b6be 7341 a4bb
00000120: 1a54 d4be 304f 123d 139e 8e3d 7ed4 87bc
00000130: 8805 743d 8568 893d 9b03 49be 9e67 f13c
00000140: 0c89 a53c e552 143e 2ea1 a63d a6fd 76bd
00000150: 81f0 df3c a685 f23d b762 a1bd b756 aa3c
00000160: 328a 503b 2dc2 9dbd ff0c ccbd e9d4 d33c
00000170: 4162 60bd 9a54 c1bd c98b 183e f20c a9bd
00000180: 72c3 d43d 51cd a93d 66ab 9f3d 2ff3 ab3c
00000190: 35de 6d3d f2b3 df3d c2cb e3bd 5c29 2e3e
000001a0: 4fd9 b1bd 5570 10be 79d6 0fbd 1642 a63d
000001b0: d014 2f3e b7f1 97bd 0131 5cbd 663a 22bd
000001c0: 4f08 c1bd 5bf1 aabd b04a c0bd a90a 1bbe
000001d0: 2df2 33bd 7cd8 00be c962 e4bc d725 13be
000001e0: 1d49 61be e5fb 7cbd 67a9 f23d d3fe 5dbe
000001f0: e9b5 a83c 8ddd e6bd 5588 0bbe 2737 5fbd
00000200: 2a59 0b3c f06b 67be 3fdc d1bd faa1 bbbd
00000210: feef 19bf 6855 51be e2e4 9fbd 6df4 1cbe
00000220: 00be 5a3b a4dc 483c 2060 763d 6fd6 f03d
00000230: fe70 7a3d bb2b 80bd 8b01 673d d66c 333e
00000240: ca84 b43d b1f8 1fbe bd4f bcbd 1883 0a3c
00000250: 35da 963c 610f 0ebd 0c25 04be 02b1 8b3d
00000260: 7a2b 6c3d 6064 d4bd d280 7abe 5edc 71be
00000270: c676 f2bb ea3e 2bbe a66f 8d3d faf6 83be
00000280: 25e2 a63d b02d 9f3c 0a36 09be 46fc 9d3e
00000290: 4c0a 84be 9afb a43d 41a3 14bd c8b5 fabb
000002a0: 632f 55bc 9092 6cbe 8456 c2bd 1dfb 40be
000002b0: 3396 1b3e 7972 2ebe 2f13 a53d e6b6 28bd
000002c0: 5f67 7d3d 04c7 aa3c 404b 84be ab4c 7fbe
000002d0: 2e6a a83c e362 c53d cd02 abbd b35c 66bd
000002e0: fc59 8d3c b30c 19be 1011 063e d226 4ebe
000002f0: dddf 993c f70e cabd a0d7 7c3d fdd5 babd
00000300: 948c d83d 66b9 743c 3abb 67bc f233 db3b
00000310: 4511 e3bb 5097 d73d 9582 623c e6e6 dabd
00000320: 2e50 ef3d 9721 e8bc 85f2 fa3d 6bb3 293e
00000330: d08d 833c c1f9 48bd eebf 503d 7295 fbbd
00000340: 7ff9 6bbd 8799 eebc 8024 ee3d e12b 933d
00000350: d798 19bc a34a c33b 49be 0d3d fd97 803d
00000360: 4eb6 19bf 22d1 99bd 9ec3 0fb9 46b5 00bf
00000370: 6274 90bd c4d4 33bd d3a4 02be 4a76 fc3d
00000380: bfaf 853c 368c 55be db90 87bd af3b 29bd
00000390: 3810 13be 6f7f c0bd aeba 04be 1d63 86bd
000003a0: 6bd7 bb3d 4815 4cbe 6206 8d3d 6313 a0bd
000003b0: fffc 76bd 658a ffbd 1b6c 953c 1c74 bf3d
000003c0: 8e5c fdbb 01a6 b43d c10f 643c 08b6 8dbe
000003d0: 8222 0dbe 20cc 8dbe b5bd e3bd 9f01 49be
000003e0: 533e e3bd a798 3bbe 12d9 52be d239 023e
000003f0: 353a fabd d749 df3b 839e 3fbd 1616 f7bd
0.034525637 -0.17141765 -0.0015286198 -0.09186873 0.08961138 -0.17693181 -0.048560884 -0.1652222
0.06847013 -0.031924352 -0.22041906 -0.2415892 0.10351526 0.09497423 -0.06998361 -0.06995858
0.040615413 0.0027675722 -0.26044035 -0.073154524 -0.09424279 0.14491668 0.096721664 -0.44830272
-0.06345124 0.02376793 -0.030156573 -0.050860025 0.026273003 0.14119925 0.14851652 0.07807095
0.21294808 0.10474313 0.11616777 0.23165947 -0.066574685 0.113709435 0.11973992 0.15125573
0.09381733 0.029027287 0.27281845 0.2003586 0.20259818 -0.30840045 -0.022858333 0.1103645
0.029450592 0.07014457 0.034197494 0.019158436 0.014576514 0.2497783 0.038710102 -0.08184416
-0.011152724 -0.016372403 -0.1068881 -0.11197097 0.091651306 0.007837774 -0.09489775 0.09256449
-0.16922855 -0.07119206 0.09774762 -0.2658433 0.033459928 0.005438246 -0.35705528 -0.005012685
-0.41470414 0.03572005 0.06963744 -0.016580816 0.059575588 0.06709389 -0.19630282 0.029468354
0.02020695 0.14484747 0.08136211 -0.06030049 0.02733636 0.11841898 -0.078801565 0.020793302
0.0031820652 -0.07703052 -0.09963416 0.02585836 -0.054781202 -0.094399646 0.14897074 -0.08254422
0.10388841 0.08291114 0.077963635 0.020989982 0.05807324 0.10922994 -0.11122848 0.17007965
-0.086840264 -0.14105351 -0.035116646 0.08118074 0.17097783 -0.0741915 -0.05375767 -0.039606474
-0.09425413 -0.08346816 -0.093892455 -0.15140785 -0.04393213 -0.12582582 -0.027879136 -0.14369904
-0.22000547 -0.061763663 0.11848717 -0.21679239 0.020594554 -0.11272726 -0.13626225 -0.054495957
0.008505145 -0.22599769 -0.10247087 -0.09161754 -0.60131824 -0.20442736 -0.07807328 -0.15327616
0.003337741 0.012259636 0.060150266 0.1175965 0.061142914 -0.06258341 0.056397956 0.17521986
0.0881439 -0.15622212 -0.09194896 0.008454107 0.018414596 -0.034682635 -0.12904757 0.06820871
0.05765865 -0.103707075 -0.24463204 -0.2361922 -0.007399413 -0.16723219 0.06906061 -0.25774366
0.081486024 0.019430965 -0.1339952 0.30856532 -0.25789106 0.08055802 -0.036288504 -0.0076510645
-0.013011786 -0.23102784 -0.09489158 -0.18845792 0.15194015 -0.17035855 0.080602996 -0.04119005
0.06186616 0.020846851 -0.2583866 -0.2493159 0.020558443 0.09638002 -0.083501436 -0.05624075
0.017254822 -0.1494625 0.13092446 -0.20131996 0.018783504 -0.098661356 0.061729074 -0.09122846
0.10573688 0.014936781 -0.014143759 0.006689542 -0.006929549 0.105269074 0.0138250785 -0.10688572
0.11685215 -0.02833633 0.12253288 0.16572349 0.016058832 -0.04906631 0.05096429 -0.12284364
-0.057610985 -0.029125942 0.116280556 0.071861036 -0.009374819 0.005959825 0.0346053 0.062789895
-0.600438 -0.07510592 -0.00013710416 -0.502766 -0.07053448 -0.04390408 -0.12758188 0.12327249
0.016319154 -0.20854267 -0.06619426 -0.041316684 -0.14361656 -0.09399306 -0.12961838 -0.06561873
0.09171947 -0.19929993 0.06885983 -0.07816198 -0.06029987 -0.124775685 0.018240025 0.09348318
-0.0077319806 0.08820725 0.013919772 -0.2767794 -0.13782695 -0.27694798 -0.11120168 -0.19629525
-0.11095872 -0.18319951 -0.20590618 0.12717369 -0.12218133 0.0068142223 -0.046782028 -0.120647594

encoder.2.bias f4 [32]
00000000: 7d09 093b 1586 aebd 3ba5 ddbc 946d f3bd
00000010: e0c3 2fbd 3823 08bd 03e1 b8bd 83da 9b3d
00000020: 1e3a debb 55a5 77bd 0fd4 00bc 41ae 6f3d
00000030: 26f0 dfba f813 2dbd 5853 873c 997e 93bd
00000040: c767 b6bd 2c51 64bd 4cd0 e1bc 7919 ecbb
00000050: 8de7 27bd 89fb 69bd 31bb 8bbc 3400 5cbd
00000060: 3fca ba3c f1ab b8bd 3a94 e3bb a515 263d
00000070: db50 9a3b 1f58 a63c 5dca a23d 98dc 1ebe
0.0020910196 -0.08521668 -0.027056327 -0.11886135 -0.04291141 -0.033236712 -0.090272926 0.07610037
-0.0067818305 -0.060460407 -0.007863059 0.05851579 -0.001708512 -0.04225537 0.016519234 -0.07201881
-0.08906513 -0.055741474 -0.027565144 -0.007205185 -0.04099231 -0.05712465 -0.017057033 -0.05371113
0.022801517 -0.0901717 -0.00694516 0.040547986 0.0047093458 0.020305691 0.07948754 -0.15513837

decoder.0.weight f4 [16, 32, 3, 3, 3]
00000000: 5b2a d83a af6e 083e 1b3e b3be cfe6 7bbb
00000010: 0955 e3be 888d 17be 1654 98bd fbde 07be
00000020: ffdc d6bc 14d3 4cbd b56d 2d3e 7860 0dbf
00000030: 6ab1 3bbd 1a6b 6dbe 1efc 57be db28 bbbe
00000040: c52e 26bf 390d bebe 77a7 18be 6aca 843e
00000050: 1e2c d3be 9d36 ae3d 0f59 0a3e 66da 823d
00000060: 705f fabc 2de8 56bd e5f8 a5be b495 14be
00000070: b337 5cbe 76d5 133e 7f9e ea3c b05e 12be
00000080: c3ca e23d e0fc 9fbe fe8e 92be 010f a0be
00000090: 02ba 233e a95c 5ebc a814 0e3e 3445 b53c
000000a0: 6605 09be 2d40 1cbe c0fd c03d 65bf ffbd
000000b0: 73d5 86bd af26 b23d fead a2bb cbe8 0cbc
000000c0: 4c34 d6bd 4a41 66bc 54ea a13b f29a bbbd
000000d0: 75ca 6abe 1a75 e9bc 2b92 d53d be3b c03d
000000e0: 8601 6a3e d6df d73a de33 4b3e b605 543e
000000f0: 6c94 82bc a945 d2bc 870e 4dbe fb26 a23d
00000100: 11a6 743d 2d5f 7e3e c10d d43b 237d e63d
00000110: 6d5c 383d ab8e aabd ba5d e6bc 37c9 17bf
00000120: d0fd 973e 60ce 253e 7a08 333d 4145 b1bd
00000130: cb18 023e 7350 17be 9a10 2abe 48f0 a0be
00000140: 2f83 2cbe 9833 afbd 635b 08bd 48c6 d9bd
00000150: f970 343e 66d9 a73d d036 83be b939 f83d
00000160: 43e3 d0b9 7324 80bd 627f 303e 47c4 3e3e
00000170: 0671 36be 9e82 8cba f626 07be f67f cbbe
00000180: c5d3 3ebc d31b f5bc 8744 92be 630f 233c
00000190: 3722 793c 334d 17be 6fd9 5bbd bacc a43c
000001a0: a079 13be 1c51 bfbc 436b 01bd 8e40 753d
000001b0: 8abe b6bd 25f4 13bd 3d8f 0dbe 20c2 50bd
000001c0: d0d3 35be 99e1 2d3e fc2b 0dbe d8a3 87bd
000001d0: 81ea e83d ffc8 0d3d ad48 9ebe cd73 b9bb
000001e0: ae67 aa3d 7ff7 ed3b b01c 203e 504c 2b3c
000001f0: 60f8 f33c 9619 09bd 36d8 97bc 43fd 48be
00000200: a20a 39bb f08a 983b 230f a5bd fd3a 1bbd
00000210: a841 08bd c2d8 1f3b ba62 f6bd 3f90 b43d
00000220: 3b78 573d ce9f 1e3e 9043 3dbc dd17 8cbc
00000230: e571 b93d cb5c 8a3d d1cd 4d3d 01ad 20bd
00000240: fe4e 533c 82aa 69bd bd8f c53d ec90 dbbc
00000250: 18c8 15bc d4b5 53bd a193 70bd adb0 d0bd
00000260: 0f3a 393d a26e d5be 146d b2be 2fac a9be
00000270: 93e4 e6be 1236 e7be 907d 81bd 6047 4a3d
00000280: a1ad a9bd 03f8 43bc c517 003d a8e2 b4bc
00000290: ee1c bdbd 6ebc 413d cf0d 0dbd 3a7a 4f3b
000002a0: 78b2 fa3b 78f6 353c 818e 843c 9572 f2bb
000002b0: ce1f b3ba 8a3c 61bd c3cc a5bc 4794 cd3c
000002c0: def1 8dbc 7564 87bb 0531 0a3d 9a40 663d
000002d0: b543 223c 24cb 803b 7ff6 933a 9f3d 0c3d
000002e0: e767 dd3b 3d88 853d d327 d6bc c63d 4e3d
000002f0: b499 2c3d 7e8d 4bbe 0ae9 0dbe a272 8bbb
00000300: 6a57 d63c 2f64 d5bc d07a 07bf 9dba 0bbf
00000310: 07de acbd 5c4a e9be cb7f b3be ffa2 993e
00000320: 2289 ba3d 4681 1ebe 5d7d 883e 3b5a 0cbe
00000330: f305 34be 6a47 9fbe e6e1 92be c83a 4b3d
00000340: 7a70 f93c 1e5b e03d cbbb 873d 0925 bbbc
00000350: 9293 cb3d e4e3 f33c 835e 90bc d956 debd
00000360: 2973 f0bd a2c3 d6be 1303 abbe 0710 b9be
00000370: 3353 c1bc a1b1 163e 03c4 41bd 14df f5bd
00000380: 05a9 113e ecc2 3abd 4b4d 333d 3e69 763e
00000390: 3c41 00be 7514 24bd ff2c aa3d 702d d2bc
000003a0: 5e74 ab3d a9f7 d03d 83e5 fd3d 2f31 a5bd
000003b0: 04f0 e73d a896 043e 2c3e 4a3c eb05 23bd
000003c0: 7f93 dbbd 2eaf 5f3d 4751 1e3e 90ce 14be
000003d0: b292 39be c5ce a6bd 5ed8 c9be a6f8 9d3c
000003e0: 559a 073e a924 b5bd 6fbf 353e df55 92be
000003f0: ecb6 143e 5ef9 5cbd 81c1 7e3d fcf2 17bf
0.0016492115 0.13323472 -0.3500832 -0.0038437133 -0.44400814 -0.14800084 -0.07437913 -0.13268654
-0.026228426 -0.050005987 0.16936381 -0.55225325 -0.045823492 -0.23185387 -0.21092269 -0.36554608
-0.64915115 -0.37119463 -0.14907633 0.2593568 -0.41244596 0.085065104 0.13510536 0.063893124
-0.030563086 -0.052467514 -0.32416454 -0.14510232 -0.21505623 0.14436898 0.02864003 -0.14293933
0.1107383 -0.31247616 -0.2862472 -0.31261447 0.15988925 -0.013571897 0.13875067 0.022127725
-0.13380966 -0.15258856 0.09423399 -0.124876775 -0.06583681 0.086987846 -0.004964589 -0.008600424
-0.104591936 -0.014053652 0.004941264 -0.09160413 -0.22928794 -0.028498221 0.1042827 0.09386395
0.22852144 0.0016469907 0.19844005 0.20705304 -0.015939914 -0.025667982 -0.20025073 0.07917591
0.059728686 0.24840994 0.006471366 0.11254337 0.04501002 -0.08327993 -0.028120864 -0.59291404
0.2968583 0.16192007 0.043709256 -0.08655787 0.1270477 -0.14776783 -0.16607895 -0.3143332
-0.16846918 -0.085547626 -0.03329028 -0.10633522 0.1762122 0.08195762 -0.25627756 0.12120385
-0.00039842175 -0.06256952 0.17236093 0.18629561 -0.17816553 -0.0010720079 -0.13198456 -0.39746064
-0.0116471695 -0.029920494 -0.28567907 0.009952399 0.015205911 -0.14775543 -0.053674158 0.020117152
-0.14401865 -0.023354106 -0.031596433 0.059876017 -0.08923061 -0.036121506 -0.13824172 -0.050966382
-0.17756581 0.1698059 -0.1378631 -0.066230476 0.11372853 0.034615513 -0.30914822 -0.0056595565
0.083205566 0.00726217 0.15635943 0.010455206 0.02978152 -0.033471666 -0.018535715 -0.19627862
-0.0028235097 0.0046552345 -0.08059528 -0.037898052 -0.03326574 0.0024390672 -0.12030549 0.08816575
0.052604895 0.15490648 -0.011551753 -0.017101223 0.09054927 0.0675598 0.05024511 -0.03922749
0.012897251 -0.057047375 0.096465565 -0.026802503 -0.009141944 -0.051687077 -0.05873454 -0.10189948
0.045221385 -0.4168597 -0.34848845 -0.33139178 -0.45096263 -0.4515844 -0.06322777 0.049384475
-0.0828507 -0.011960986 0.03127267 -0.022080734 -0.092340335 0.04729884 -0.034436997 0.0031658546
0.0076506697 0.011106126 0.016181232 -0.007398913 -0.0013666095 -0.054989375 -0.02023924 0.025095118
-0.017327245 -0.0041318485 0.033738155 0.056213953 0.009903838 0.0039304662 0.0011288672 0.034238454
0.006756771 0.06520126 -0.026142037 0.05035188 0.04213877 -0.19878194 -0.13858429 -0.0042556087
0.02616473 -0.026048748 -0.5292177 -0.54581624 -0.08440786 -0.45564544 -0.35058436 0.3000717
0.09108187 -0.15479001 0.26658145 -0.13706295 -0.17580394 -0.31109172 -0.28687972 0.049616605
0.03044914 0.10954879 0.066276155 -0.022844808 0.09940256 0.029771753 -0.017623192 -0.108564086
-0.11740715 -0.4194613 -0.33400783 -0.3614504 -0.023599243 0.14716198 -0.047306072 -0.120054394
0.14224632 -0.04559605 0.043774884 0.24063584 -0.12524885 -0.04005857 0.083093636 -0.025656432
0.08371805 0.102034874 0.123972915 -0.08066022 0.11325076 0.12948096 0.0123439245 -0.039800566
-0.10721492 0.054610424 0.15460692 -0.14531922 -0.18122366 -0.08144907 -0.39422888 0.019283604
0.13242467 -0.08844883 0.17748807 -0.2858114 0.14522904 -0.053948753 0.06219626 -0.5935514

decoder.0.bias f4 [16]
00000000: d61d ea3c d0c6 453b b6c8 f13c 3895 783c
00000010: bbb1 43be 9edf efbc 9450 37bd 8d6e acba
00000020: 173e ea3c 351b 41bd ca6b 2f3c 98b6 c33d
00000030: 85d8 953d 4937 aebd b7b2 bdbd b614 b5bd
0.02857868 0.0030178316 0.029514652 0.015172295 -0.19110768 -0.029281434 -0.04475458 -0.0013155505
0.02859406 -0.047145087 0.010706851 0.09556311 0.073166884 -0.085066386 -0.09262603 -0.08841841

decoder.2.weight f4 [1, 16, 10, 3, 3]
00000000: b5c2 ecbb b603 0cbc 4425 75bb d5f8 873c
00000010: 5bc0 61bb 162b 43bc 689b 94bc 415e c93b
00000020: 5810 39bb e94b 32ba 8f9d 263b 1d16 a13b
00000030: 1d87 c5bb 6aa5 4a3c e9a1 733c 0a64 12bb
00000040: be4e b6bb 141c 0bbc 00dd 97bb 590d 9f3b
00000050: 67b3 a2bc 8279 a03c e2a8 bd3c 5e88 913c
00000060: 411b 6cbc 0a1e 8ebc e699 15ba 531f 15bb
00000070: e93a 13b9 df5f 3abc 28d4 8e3c d3ff 073b
00000080: 919a 8bbc c060 11bc 5295 293c 5118 8d3b
00000090: 094c 12ba 4938 78bc e2e1 833b ba47 e33c
000000a0: 08bb f53c f528 793b f38b 4a3c 333f a7bc
000000b0: 9326 62bc 42c2 763b 9c4b fabb 5114 98b9
000000c0: f3d7 ac3c 5ca8 483c 302e 7fbb be75 31bd
000000d0: 189d 09bd 4faf 95bc 132d 40bb f76f 0a3c
000000e0: 2e15 923c 42a3 003d c03e 363d 3905 6f3c
000000f0: 5b3d 46bd de5f f7bd bbbf 16bd 4943 33bb
00000100: ed17 15bc 7237 1dba b9d9 aabd a647 1b3d
00000110: bb7f d7bc 609e b83c b2d5 a53e 4226 193d
00000120: f40d ad3b 0d54 04bd 8fa5 d63b fe76 89bd
00000130: 834b febb 9bc2 0e3d 7e1a 70bd 7c70 593e
00000140: 7406 7cbd cf1c b4bb 1829 173c f6c9 af3b
00000150: 784d e1bb c37f 8d3b 3718 f43a 56b8 f53a
00000160: 3d63 463a fbfc 8bba 7039 c7bd 75c5 d0bd
00000170: c0fe 813c 6fe9 4b3e 4ec5 0a3e cfa4 653e
00000180: cd2f b0bd d878 6ebe 0790 a2bd e9f4 d13d
00000190: 450a ad3d ab4c dd3d 050d de3c 0fc1 93bc
000001a0: 25d5 b53d c1d8 2a3c 02be 07bd b72a 4dbc
000001b0: d8de e93c f8e4 32bb 35b2 503c e191 37bd
000001c0: bfeb 0abd 7564 1abd d2cc e03d fe38 3f3e
000001d0: 091f 3e3d 9284 95bc a5ef 9bbc c5e3 5abb
000001e0: 9ec9 c83c 410b 8a3a 7ec2 9d3d 3277 583d
000001f0: a316 8f3d 4bb5 4f3c 7477 79bc 0431 95bc
00000200: 121f 103c 2367 24bd c8c0 b6bd 783b 08bd
00000210: 4296 703d 8eea aa3d 812c 0d3e ded3 9bbc
00000220: 2513 77ba f2b2 57bc 45f6 a7bd 7207 33be
00000230: be68 423d 1403 fe3d f539 a03d bba7 853e
00000240: a66d e0bc e8a9 04bd 9604 0bbd f97c a9bd
00000250: f9f5 67be aa7a 20be fd41 473d 5cf8 e63d
00000260: 6453 863e 892b 1f3c a540 653d ccc8 4fbc
00000270: 1c48 213e af49 9d3e 4f22 173e 7be7 06be
00000280: 0b01 2dbe 9c05 59bd a089 323d cea1 89bb
00000290: 680f 123c 8ab6 21ba 4d27 353c 467b 36bc
000002a0: d5c7 fdbb 4792 6dbc 6c6e 143d bc07 3dbd
000002b0: ecf6 9cbd 05ff 6a3d 144c 2dbe 1e8e 24be
000002c0: 9e77 90bd 3bd2 43bd 050c 10be f62b 08be
000002d0: d82d 263c 8381 a83c 00c2 4d3c 7a51 84bc
000002e0: 16d3 89bb 56e0 c238 718d e1bc a36e ba3b
000002f0: d70d 3a3b b1e0 93ba fa73 8b3c 0875 613c
00000300: 6413 babc 3e80 6b3c bb5c b0bb 408a 873c
00000310: bb49 e4bc 0a69 353c 8d35 8cbb db68 38bb
00000320: 067a 4bbc 4f3d e6bc 26cf 8d3b 7313 5abc
00000330: b3d8 a93a 4b95 3cbb 394b 0bbb 6d31 a7bc
00000340: 5e61 b4bc d4a0 283c 5392 e23a 3e75 a23c
00000350: 4a99 1cbb 9783 acbb 0e68 703b c65c aa3a
00000360: 338f 31bc d9a2 33b9 c541 43bc 7390 bf3b
00000370: ef35 49bb 2f05 3bbb 8e05 2bbc 42c2 693a
00000380: b525 ca3b 3fdd 113c cde1 91bc 8dfd 23bc
00000390: 0766 8dbb 2167 3cbd 33d4 d13b 8284 a43c
000003a0: 7cf1 c9bc 7eb2 313d e639 d23d 8c60 a7bd
000003b0: 9c68 403c e85e 383d 1cde 23be be92 953d
000003c0: 54c6 a43d b662 83bd eeb6 e63c 1f5f 6bbb
000003d0: 1d5b 0c3c ef61 1bbc 3915 93bc 2a0b c33e
000003e0: 7f60 29bc 155a e1bd 444e 393d 722d 7dbd
000003f0: b783 d1bd b51c dfbc 12fa 6bbd 4fde 01bd
-0.0072253593 -0.008545807 -0.0037406245 0.016598145 -0.0034446928 -0.011912128 -0.01814051 0.006145269
-0.0028238501 -0.00068014726 0.0025423502 0.004915966 -0.0060280696 0.012368539 0.014870145 -0.002233746
-0.005563586 -0.008490581 -0.0046344995 0.004853886 -0.019860936 0.01958919 0.023151819 0.01776522
-0.014410795 -0.017348308 -0.00057068316 -0.0022754266 -0.00014040958 -0.0113753965 0.017435148 0.0020751848
-0.017041476 -0.008873165 0.010350542 0.0043058773 -0.0005580788 -0.015150138 0.00402473 0.027744163
0.02999641 0.0038018797 0.012362468 -0.020415878 -0.013803142 0.0037652408 -0.007638408 -0.00029006836
0.021099066 0.012247171 -0.0038937442 -0.04332518 -0.033597082 -0.01827207 -0.0029323741 0.008449546
0.017832365 0.031405695 0.044493437 0.0145886475 -0.048398357 -0.12078832 -0.036803942 -0.0027353338
-0.009099943 -0.00059973367 -0.083423086 0.037910126 -0.026306024 0.022536457 0.323896 0.03739
0.0052812044 -0.03230672 0.006550498 -0.06712149 -0.0077604665 0.03485356 -0.058619015 0.21234316
-0.06152959 -0.0054965983 0.009226106 0.005364652 -0.00687569 0.004318209 0.0018622939 0.0018746953
0.0007567888 -0.0010680252 -0.09727752 -0.10193912 0.015868545 0.19913267 0.13551828 0.2242615
-0.08602867 -0.23288286 -0.07937627 0.10251791 0.084492244 0.10805639 0.027105818 -0.018036393
0.08878545 0.010427655 -0.03314019 -0.012522391 0.028548643 -0.002729712 0.0127378 -0.044816855
-0.03391623 -0.03769346 0.109765664 0.18674085 0.046416316 -0.018251691 -0.01903517 -0.0033399921
0.024510201 0.0010531918 0.07703112 0.05284805 0.069867395 0.012677501 -0.015226234 -0.018211849
0.00879647 -0.04013742 -0.08923489 -0.03325984 0.058737047 0.08345519 0.13786508 -0.019021925
-0.0009425155 -0.0131652225 -0.08201269 -0.17483309 0.04746317 0.12402931 0.078235544 0.2610453
-0.027396034 -0.032388598 -0.03393992 -0.0827579 -0.22652425 -0.15671793 0.048646916 0.112778395
0.26235497 0.009714969 0.055969853 -0.012682151 0.15750164 0.3072028 0.14759181 -0.1317424
-0.16894929 -0.052983865 0.04358828 -0.004200197 0.008914806 -0.0006168863 0.011056733 -0.011137789
-0.007744769 -0.014500207 0.03623812 -0.046149954 -0.07664284 0.05737211 -0.16923553 -0.16069838
-0.07054065 -0.047807913 -0.14067085 -0.1329802 0.010142766 0.020569568 0.01255846 -0.016152132
-0.0042060716 9.292427e-05 -0.027533265 0.0056894585 0.0028389597 -0.0011282173 0.017023075 0.013760813
-0.022714324 0.014373837 -0.005382148 0.016545415 -0.027867189 0.011072407 -0.0042788447 -0.002813867
-0.012419229 -0.028105406 0.0043276725 -0.013310301 0.0012958258 -0.002877551 -0.0021254553 -0.02040931
-0.022019085 0.010292251 0.001728604 0.019831296 -0.0023895078 -0.00526471 0.0036683115 0.0012997619
-0.010837364 -0.00017131436 -0.011917536 0.005846077 -0.0030702313 -0.0028537025 -0.010438336 0.00089171913
0.006169046 0.008902847 -0.017807866 -0.010009182 -0.004315141 -0.04599679 0.00640347 0.020082716
-0.024651282 0.043383114 0.102649495 -0.08172712 0.011743691 0.045012385 -0.16002697 0.073033795
0.080456406 -0.06415312 0.0281634 -0.003591485 0.008566645 -0.009483798 -0.017954456 0.38094455
-0.010337948 -0.1100351 0.045240656 -0.06181092 -0.10230201 -0.027235368 -0.057611533 -0.03170615
