src/video_conv3d.pth (torch, 121852 bytes, 7 tensors)

encoder.0.weight f4 [16, 1, 3, 3, 3]
00000000: 1fe9 df3c 2298 003c 6b4e 7a3e fac8 5b3e
00000010: cc60 693e 0471 7f3e 082c d33c 0537 983d
00000020: 0e43 4c3e ab93 2a3e 09cf 273e 22bc 10bd
00000030: 4238 01be 1af0 24be 2ee6 ecbd 15e4 5fbd
00000040: 8917 0fbe bc22 4ebd 51f9 a33d 91ce 70be
00000050: 86f8 08be 99a3 3ebd 6e63 a1be a373 3b3e
00000060: 975c 7d3d 2813 243e 82b2 18bd 516e c2bc
00000070: 44d2 b7bd f19c 4d3d efa8 85be a17d 2d3d
00000080: 7027 8abc 5376 efbd dfff d83d 629c 6bbe
00000090: 53b3 bc3d 113e 53bd a5b1 0bbe a43f 00be
000000a0: caf6 57be 9ef8 a7bd 4d33 cf3d cafc 8c3d
000000b0: e0ac 7e3d 278d 663e 14a2 843c a627 0a3e
000000c0: b1eb 8a3c 753b 613e f7dc e43d e1ed c43d
000000d0: 667c 113e 3bf4 403e 6024 943d 4777 6e3e
000000e0: cb09 a6bd c6cc 83bb 300d 7b3e e83d 323e
000000f0: 69a4 56be 7643 0d3e 6f77 57be 3deb 70be
00000100: 9672 59be 68ae 0f3e b190 1dbe 258e 0dbe
00000110: 6a41 72be f24d 05be 80f8 063e 4178 3f3e
00000120: aeac cabd 3f99 45be 826b 14be 07ba 0a3b
00000130: ac67 39be 0689 853d d82c 853e 64fe 50be
00000140: 535e 30be f755 0e3e f8c9 2f3e 3da2 d23d
00000150: 1ba6 583e 1acc 3abd 37a6 8b3d 379d 8e3d
00000160: e4a4 203e 0791 fdbd d435 b4bd 9c70 aabe
00000170: 1d55 99be 4833 77be dcca 19be 2276 e23d
00000180: c407 19be d127 f13d 68bd c63d 7e06 4cbe
00000190: 82fe e53d a3a4 803e 7bed 023d edda 7e3e
000001a0: 8252 4dbe 337c a2be 24f4 a2bd 6848 21be
000001b0: b7ca 043b c8a8 a8bc 9605 f73d 6057 38bd
000001c0: 9dc3 ca3d c406 b13d 07c6 183e c947 3b3e
000001d0: f6c4 c4bc b798 17ba f1f8 ebbd ae0d 153e
000001e0: 2eb2 5c3e d6e0 33bd a941 57be 1b0b e3bc
000001f0: 0ad8 f7bd 1d22 bd3c 52e8 483e 142c 80be
00000200: f9e6 cf3d 421f 61be dcb8 77bd 2f54 02be
00000210: e489 86be 8dc1 3e3e 7458 3dbe e572 fabc
00000220: 7ef0 883d c083 f33d daac 4b3e 27b6 933d
00000230: 17f2 f63d c88f 533e 0111 393e 5213 353e
00000240: 91d9 2ebe 4692 ffbd 32d7 e93d 6c4d 1a3e
00000250: 7e81 5cbe 1188 10be aca4 e53d 43aa ef3c
00000260: 2831 41be f7b2 d1bd 2c8c 86bd e405 5a3e
00000270: 6ed2 263e 05db 843b 7c83 38bd 512d 1e3e
00000280: 7844 5e3d 291b b3bd 4b0f 31be 9129 b43d
00000290: 21cb 2e3e 9d72 833e 69bf f0bc 938f a13b
000002a0: 1dba cb3d d436 113c acc2 e33d 4d37 74be
000002b0: 8775 debc 65da 523e b56a 6b3d 4348 80be
000002c0: 724c 89be 6d21 91be 358a de3d 1fa1 483e
000002d0: d65a a23d b7c6 b2be 01a0 cbbd 5a21 a43d
000002e0: 8616 9f3d c2b6 eabd a97d afbc e3bd 9cbe
000002f0: efaf e33d 8237 543c 65d3 003d a6ae 143c
00000300: 97c0 57bd d3a7 adbc 7596 d23d cc24 11be
00000310: 771a 58be 1254 4bbd b979 d03d 3f1d 9cbc
00000320: d2e3 e0bd 0986 d93c 8c63 b9bd e186 5d3e
00000330: e7d1 463e 8c00 4a3e 5cc4 713e 5b6d bbbc
00000340: d090 263e 49b0 ebbd ee1c 2ebe 6fb2 a03d
00000350: a510 c53d d050 433e d634 a1be 37be 9cbd
00000360: 82d8 4e3e 0515 c6bd b617 333d 5552 bfbb
00000370: 4dc6 3d3e 7706 923d bf76 463e bbf9 97ba
00000380: 0942 413e 1987 a23d 04eb 34be b123 523e
00000390: 751d 5fbc e154 8cbd cc79 cebc f7b2 693d
000003a0: 0225 003c cb0c 043e e886 f7bd 5ad8 b3bd
000003b0: c052 a2bc 0e5c 4fbe 284a 40be 897b f43c
000003c0: da12 853d 0b3e 103e 1b59 43be 8173 90bd
000003d0: 4a98 d0bd 0f43 8ebe d4e7 2f3d ff39 4fbe
000003e0: 67d9 abbe 0dda 01bd 59c7 adbd 16ab f4bc
000003f0: 32fc f13d 604c 0abd ac48 613d 11dd 4e3c
0.02733284 0.007848771 0.24443977 0.21463385 0.22790831 0.24945456 0.025777832 0.07432369
0.19947454 0.16657893 0.16387571 -0.035335667 -0.12619117 -0.16107216 -0.11567341 -0.054660875
-0.13973822 -0.050326094 0.08006538 -0.23516299 -0.13376054 -0.046542738 -0.3152117 0.1830583
0.06185588 0.16022933 -0.037279613 -0.023734244 -0.08975652 0.0501985 -0.2610545 0.042356137
-0.016864508 -0.116924904 0.105956785 -0.23008874 0.09213891 -0.051572863 -0.13641985 -0.12524277
-0.21090236 -0.08201717 0.10117207 0.06884153 0.062176585 0.22514783 0.016190566 0.13491687
0.01695809 0.21995337 0.11174958 0.09615684 0.1420761 0.18843167 0.072335005 0.23287688
-0.081073366 -0.0040222136 0.2451675 0.17406428 -0.20961155 0.13795266 -0.21041654 -0.23527236
-0.21235117 0.14031374 -0.15387227 -0.13823755 -0.23657766 -0.13018015 0.13180733 0.18698217
-0.09896217 -0.1929674 -0.14494136 0.002116801 -0.18105954 0.06520276 0.26010776 -0.20409542
-0.17223482 0.1389998 0.17166889 0.10284851 0.21157114 -0.045604803 0.06818812 0.0696358
0.15687901 -0.123811774 -0.087993294 -0.3328904 -0.2994775 -0.24140656 -0.15018791 0.11057688
-0.14944369 0.117751725 0.09704095 -0.19924352 0.11230184 0.25125608 0.03196476 0.24888201
-0.20051005 -0.3173538 -0.079567224 -0.15750277 0.002026243 -0.020588294 0.12061612 -0.045005202
0.099005915 0.086438686 0.14919291 0.18289103 -0.0240197 -0.0005782949 -0.11522091 0.14556
0.21552345 -0.043915592 -0.21021141 -0.027715256 -0.12101753 0.023087556 0.19619873 -0.2503363
0.101514764 -0.2198458 -0.06047903 -0.12727426 -0.26277077 0.18628521 -0.18490773 -0.030572364
0.06686495 0.11890364 0.19890156 0.07212477 0.12057894 0.20660317 0.18072893 0.17683151
-0.17075182 -0.12479071 0.114179984 0.15068597 -0.21533772 -0.14114405 0.11213049 0.029255992
-0.18866408 -0.10239213 -0.065697044 0.2129131 0.1629121 0.0040544295 -0.04504727 0.15446974
0.054264516 -0.08745415 -0.1729099 0.08796991 0.17069675 0.2567338 -0.029388146 0.0049304455
0.09947608 0.00886317 0.11121115 -0.2384922 -0.02715565 0.20591123 0.05747481 -0.2505513
-0.26816136 -0.28345814 0.10866205 0.19592713 0.07927482 -0.34917232 -0.09942628 0.08014174
0.07767968 -0.114606395 -0.021422224 -0.30613622 0.11117541 0.012952687 0.0314516 0.009074843
-0.052673902 -0.021198189 0.10282604 -0.14174193 -0.21103846 -0.049640723 0.10179467 -0.019056914
-0.10980953 0.02655317 -0.0905219 0.21633483 0.19416009 0.19726771 0.23610061 -0.022879293
0.16266179 -0.11508233 -0.17003223 0.078465335 0.09622315 0.19073796 -0.31485623 -0.07653468
0.20199779 -0.09671978 0.043723784 -0.005838672 0.18532677 0.07130139 0.19381236 -0.0011594811
0.18872847 0.07935924 -0.17667776 0.20521428 -0.013617863 -0.06852127 -0.025204562 0.05705544
0.007821323 0.12895505 -0.12086278 -0.087815 -0.019814849 -0.2024996 -0.18778288 0.029844062
0.06497736 0.14086168 -0.1907696 -0.070532806 -0.10185297 -0.27785537 0.042945698 -0.20236968
-0.33564302 -0.03170209 -0.08485288 -0.029866736 0.118156806 -0.033764243 0.055000946 0.0126259485

encoder.0.bias f4 [16]
00000000: 487f 68bd 3c9d 22bd 8826 773d 8d1b 893d
00000010: 185b b73c 8052 69be 1e1c 413d c338 acbd
00000020: 6282 2a3b dc73 87bc 2cd0 bbbb 8fcf a4bd
00000030: f9d3 983c 0f3e 38be fcee 2abd 2263 35bb
-0.05676201 -0.03970073 0.06033948 0.06694708 0.022382304 -0.22785378 0.047145955 -0.08409264
0.0026017656 -0.016534738 -0.005731603 -0.08047401 0.018655764 -0.17992423 -0.04173182 -0.0027677496

encoder.2.weight f4 [32, 16, 3, 3, 3]
00000000: 338f 09bd 85d5 86bd 6827 4cbe 685f 5cbd
00000010: 2680 823d 2d16 133d aa34 cdbd 22dd cd3d
00000020: 0eeb 0b3e 82d8 14bd eb48 a83c 339e 8c3d
00000030: 5169 2abd a1bc 293c b1d7 c63d ef5c 30bc
00000040: e389 a2bb 0af9 b13d 3f71 3abd 1779 9f3d
00000050: 2fb2 4d3e 7968 a1bc 5589 f63b cc21 713d
00000060: 42e8 2cbd 5de4 323e 7f97 9c3d 3bfb 133e
00000070: 61db 053d 126f 12bc 9310 47bd c172 bd3c
00000080: 5086 2b3d 1e7e de3d 8738 093e baba 843d
00000090: 3ae3 143d 36d4 ae3b 8276 8b3d a693 233d
000000a0: 542b b93c 9978 033c 3f14 0ebe e34f 92bd
000000b0: 93d3 2bbe 77ef d4bd 3b94 13be 6c92 9ebd
000000c0: 347d 7abe 6a82 55be 20b2 cebd 72c1 b3bd
000000d0: 4298 20be 5bb9 97be 54db a9be bdde 90be
000000e0: 58bb 0ebe b731 a6bd 1853 cb3c f7c9 393e
000000f0: 14eb ae3d 48e9 77bd 954d 303d b307 0dbe
00000100: ffe0 703e 3ea0 ac3d 1bf9 5a3d 4844 6cbe
00000110: 315d 45be fbfa 9e3d fec7 eabc 75a0 93be
00000120: 5bf3 b73d bdf4 06be d0e6 00be ca7f 4fbd
00000130: 05f5 8bbc bb9f 283c 83b3 5d39 35d2 b4bd
00000140: 0284 3b3e 3ae8 99bd ddc9 07bd d217 82bd
00000150: 9411 953d 79ef f6bd 01a2 38bd bccf 98bb
00000160: c285 f2bd 4f0c fd3c 0652 c7bd 8875 10bd
00000170: bf51 b43d 0fa7 2f3c 06bb 26ba 3eb0 3e3c
00000180: 73cc b3bc 44ed 5abd a2cb 66bd 82c3 f1bd
00000190: 3e2f 09bd 7619 80bd 1c56 f3bd 9bf9 15be
000001a0: b89e 603d c765 83be 4067 5ebe 3952 273d
000001b0: dcec cebd c59b fe3c 5dde ebbd c8ef 95be
000001c0: 20da 82bd 3121 e8bd 5fad 593d 250c 06bd
000001d0: d22f 0c3e cff3 8fbb 4d30 4f3c 63ab f9bc
000001e0: e686 2cbe 62f5 2a3d 83e3 d63d 5bd5 213d
000001f0: 913a e03d 7671 0dbd 9892 143c edc0 853d
00000200: 99b8 fc3d e659 e1bd f6d4 de3c 70f8 213e
00000210: 82b4 1a3e d14a 5a3d d9b3 e93b b956 04bc
00000220: b956 af3d af86 30bd 54d5 393d 95f2 a1bd
00000230: 1cfb 9fbd ab78 f5bd 6ca9 d33b 39f2 9ebe
00000240: 824c cfbb e902 8d3d 792e c9bc 62d4 17bb
00000250: 1b8f 0ebe a681 ecbb 28ed 923c 75df 033c
00000260: 2c0f b0bd da8c efbd 60c8 e4bd 141a 92bd
00000270: 433a 58bd 1c79 97bd c035 96bc 1ba4 31bc
00000280: d69c abbc 7cbd 32be 95ef c93b 335a 9ebc
00000290: 7812 513d f61f 17be a39e fbbc 3184 4b3c
000002a0: 287b 29bd 6889 d3bd 943b d5bd f9df 283b
000002b0: fe47 213d fd52 e9bd 90c5 f63b 4ba5 133d
000002c0: e300 203d c970 fc3c 194e 723c 3e2b 51bd
000002d0: 4796 b73d 48d4 35be 2a93 653c 4439 13bd
000002e0: 9a15 27bd ca53 723d 9f3d c3bc f8c7 c3bc
000002f0: 55e4 d6bd 1776 a7bd 6a39 a33b a8c4 0dbe
00000300: aeee 3d3b 7f58 0abd a132 6a3d 7e8e b13d
00000310: b211 a53c 895d 3a3e fa48 41bd 64ff 12bd
00000320: b42c 34bd e25f 0a3e b8f5 973d 035a 443d
00000330: 8850 4f3d bdcd 6e3d 028e e23d 55ab 003e
00000340: 29e7 0c3e 201b 26be ef5c 983c 189b 39be
00000350: 63ed 68be 84f7 16bd fc92 3abe bc0e acbe
00000360: 5c4c d4bd 23c1 10be c19d febd 32cc a7bd
00000370: 3e7c 9e3d 6ddd a4be eede 0bbd f35f 55be
00000380: 332f 3cbd 9784 31bd a4da cbbb 7c3c fbbc
00000390: 8cf0 e7bc 0201 b9bd 60ae 8bbe 81f1 5b3d
000003a0: 92a3 e2bc bf57 4bbd 3e7f 883d c2d4 0e3c
000003b0: 4c7a d1bd b99d 54bc 4141 9f3d a802 8b3c
000003c0: eb52 693d d2d2 12bd 7f3e b1bd 84c8 cabc
000003d0: d4f7 14bc ead4 c9bb 23b9 16be 3f92 0c3d
000003e0: bda7 4d3e 3dc9 1c3e b268 093e 1c54 8d3e
000003f0: 623e 083e 195a 933d 2819 09bd e8e9 703d
-0.03358383 -0.06583694 -0.19936907 -0.053801924 0.063720986 0.03590982 -0.100198105 0.10051943
0.13663885 -0.03633929 0.020542582 0.068661116 -0.041604344 0.010359914 0.097091086 -0.010764345
-0.004960285 0.086900786 -0.045518156 0.07786768 0.20087503 -0.019703137 0.0075236955 0.05887012
-0.042213686 0.17469926 0.07646083 0.14451306 0.03267992 -0.008937614 -0.04859979 0.023126008
0.041876137 0.10863899 0.1340047 0.06480928 0.036349513 0.005335356 0.06809713 0.03993573
0.022603668 0.008024358 -0.13874911 -0.071441434 -0.16779928 -0.10397237 -0.14412014 -0.077427715
-0.24461824 -0.2085053 -0.100925684 -0.08777131 -0.15683082 -0.29633602 -0.33175147 -0.28294936
-0.13938653 -0.08114951 0.024819896 0.1814345 0.08540931 -0.06052521 0.043042738 -0.13772468
0.23523329 0.08429001 0.05346022 -0.23072922 -0.19273831 0.077627145 -0.028659817 -0.28833356
0.08981963 -0.13179298 -0.12588048 -0.05065898 -0.017084608 0.010291989 0.00021143076 -0.08829156
0.18312076 -0.07514997 -0.033151496 -0.063521996 0.072787434 -0.120573945 -0.045076374 -0.0046634357
-0.118419185 0.030889658 -0.097324416 -0.035268337 0.08804654 0.010720982 -0.0006360266 0.011638699
-0.021948075 -0.05344893 -0.056346543 -0.11804868 -0.03349232 -0.06254856 -0.118816584 -0.14645998
0.054838866 -0.25663587 -0.21719074 0.040849898 -0.10103771 0.031080136 -0.11517022 -0.292845
-0.0638926 -0.11334456 0.053143855 -0.032726426 0.13690117 -0.004393078 0.012645793 -0.030477231
-0.16848335 0.04173792 0.10492613 0.039510112 0.10948671 -0.034532033 0.009068154 0.06530938
0.12339897 -0.11003475 0.027201157 0.15817428 0.15107921 0.053294007 0.007132035 -0.008077317
0.08561463 -0.043097194 0.04536946 -0.07907597 -0.07811567 -0.11985906 0.0064594056 -0.31044176
-0.006326259 0.06885321 -0.024558293 -0.0023167362 -0.13921778 -0.0072176037 0.01793535 0.008048882
-0.08596644 -0.11696787 -0.11171031 -0.0713388 -0.052789938 -0.07396147 -0.018336177 -0.010842348
-0.020948809 -0.17455095 0.0061625936 -0.01933012 0.051043004 -0.14758286 -0.030715292 0.012421654
-0.041377217 -0.103289425 -0.10411754 0.0025768264 0.039375298 -0.11392782 0.0075308755 0.036046308
0.039063346 0.030815499 0.014789128 -0.05106663 0.0896421 -0.1775676 0.014012137 -0.035943285
-0.040792085 0.05916194 -0.023833094 -0.023899063 -0.1049277 -0.08176821 0.0049812095 -0.1384455
0.0028981376 -0.033775803 0.05717719 0.08669756 0.02015004 0.18199743 -0.047188736 -0.03588809
-0.043987945 0.13513139 0.07419914 0.047937404 0.05061391 0.058301676 0.11062242 0.12565358
0.13760056 -0.16221285 0.018599002 -0.1812557 -0.22746806 -0.036857143 -0.18220133 -0.3360499
-0.10366127 -0.14136176 -0.12432433 -0.08193244 0.07738541 -0.32200184 -0.03414815 -0.20837383
-0.04594345 -0.04333934 -0.0062211324 -0.03066849 -0.028312944 -0.09033395 -0.27281475 0.053697113
-0.027665887 -0.049644228 0.066648945 0.008717718 -0.102284044 -0.012977057 0.07776118 0.01696904
0.056963842 -0.035845585 -0.08654498 -0.024753816 -0.00909229 -0.0061594145 -0.14719062 0.03431916
0.20083518 0.15311141 0.13418844 0.27603233 0.13305047 0.07194919 -0.033471256 0.05881682

encoder.2.bias f4 [32]
00000000: 3232 0cbd 0535 453d 9679 2dbd f581 dabb
00000010: 845b 0e3d f22f 1fbd 4b0c 9d3d 6039 3dbd
00000020: 7557 3c3c 3732 bdbc 3b9c 4abd 7349 dc3b
00000030: b543 01bc 48f2 d1bc 6204 a3bd fb3a 363c
00000040: 4e5c cb3b 438e 9ebd bae9 a6bd 34c4 b7bc
00000050: 358b 02bd fa29 e8bc 01a8 38bd e6ce 84bd
00000060: edde d43c 9d09 a9bc e49f c5bd e28b 04bd
00000070: b76c a9bc 285f a5bc ff2c 55bd 5664 8a3c
-0.034227557 0.048146266 -0.04235228 -0.006668324 0.034755245 -0.038864084 0.0766836 -0.046197295
0.011495461 -0.023095233 -0.0494654 0.006722623 -0.007889678 -0.025628224 -0.0795982 0.0111224605
0.006206072 -0.07741978 -0.081500486 -0.022432424 -0.03187104 -0.028340328 -0.045082096 -0.06484775
0.025985206 -0.020634467 -0.09649637 -0.032359965 -0.020681722 -0.020186976 -0.052044865 0.016893547

decoder.0.weight f4 [16, 32, 3, 3, 3]
00000000: 0752 6d3e 2f69 213e 26c2 1ebf b1a8 173e
00000010: 878b 8d3d 2a14 35be 47b3 b9be 2d2a 71be
00000020: 045b 5ebe 002e d9be 393a eb3c 2cb5 fa39
00000030: c5ad 93bd 0490 c43d 65c1 a23c c6d5 763d
00000040: 350a e23d dff7 a93b 3f1d 61bd ac73 7fbc
00000050: 7077 ed3c b62b 69bb 4078 e53d 81ad 243d
00000060: 1db6 323b de7b 2f3e 80c2 4ebd c542 753d
00000070: 71f8 e4bc 9b7f 83bb b8c5 0f3d eca6 983c
00000080: 3430 3cbd 47e6 c9bd 876a d3bb 9943 2fbe
00000090: 14d9 503d 148d 073e e8d3 86bd 7d9c 583d
000000a0: 1ed3 4b3b 9310 c13b 93b6 103d a24b 56bd
000000b0: 990f 19bd 8fa0 c63c d9e3 2a3d 3bfd e2bc
000000c0: f8e6 c6bd 0909 78bd ea04 893a dac4 563e
000000d0: 6534 adbd 452a e9bd 9a89 3fbe 2e45 abbd
000000e0: 2751 28bd bdec 2cbe a703 883e a4b9 6fbd
000000f0: d73f c53c 3562 fd3c 428a 95bb b10e 82bd
00000100: 1575 b53d 0ae0 c3bc e193 5abd 122e f4bc
00000110: 26bb b53d 430a 00be 498b 4cbd dfd3 9dbd
00000120: 751f 9c3c c5d7 933e 8eac 41be 2d6b 4ebd
00000130: 07ae 8b3d 0b7b d73c bff5 373d 7f5f 1abd
00000140: db29 a4bb 80d0 5cbe b234 6cbc 83db 38be
00000150: 4356 1dbd 8b42 83bc b42f d43b a607 243d
00000160: 9227 cf3d 365b af3c ceb1 43bf 0831 45be
00000170: 750b 7f3b 6b16 b8bd 9cb2 fcbc 8967 213d
00000180: e23c 593d 07a3 d83d 6602 a83d 62c8 1cbf
00000190: 9146 0fbe e81d 673d da0a b2bc 9048 403d
000001a0: f18d 213d 3e68 813d 916e c13d 1880 60bd
000001b0: bccc bc3d 74f4 c83d d333 443e 73c1 9c3d
000001c0: 74d8 a93d 5089 543d 4a88 4f3d e118 313d
000001d0: 9645 8e3d 5191 b93d aa24 4c3d 9a6a 703d
000001e0: 1736 253d 212d af3b 3aef 953d 0ed5 cfbb
000001f0: 7d30 253d 5dbd 7fbb 252e 443e 6212 93bc
00000200: 0dec d0bc 343f 11bc b164 58be ed80 62bd
00000210: 2eeb b13d b65a 03be 9a21 503d 918b bebd
00000220: 2f68 633c 2351 62be 653b 593d ad94 623e
00000230: a84e 8fbc 3ed9 a13d 5c7f 123e 300b eb3d
00000240: 08c0 65be 278a 00be 8744 bbbe d0bf 8c3d
00000250: d005 223e 50a2 05bd 9c2f 803d 6b9a 783e
00000260: 3685 67bd b6a1 43be b59f a3bc fc18 dcbe
00000270: be70 ae3d 2db6 903d d237 193e 7506 10be
00000280: 9469 543e 92f1 e1bd a18c 2abe 3fc4 d33c
00000290: 5ab3 bebe d46b f93d e63f 903d f7b1 5bbe
000002a0: c0ff 61bd a297 4f3e 9aee ecbd f340 0abd
000002b0: 2ea0 babd d1d5 0dbe 56cf c93c 2e7a 193e
000002c0: a619 c7bd 53c3 223d fbea a63d bab8 b1bd
000002d0: d6fc 983d 6a49 ef3d ad28 413d 5753 ea3d
000002e0: c290 1f3c 95fa 783d 88a8 243d f3c2 643d
000002f0: d4af 823d 4430 d6bd b97e 31be 5889 ed3c
00000300: 72b0 53be 0caa 1ebf 5761 713e 09f3 2ebc
00000310: 790e 8e3c e6d4 423c 0725 b6bd 9389 103d
00000320: 9319 903c 650e 263d da94 18bf 002b 39bd
00000330: 0237 85bc e14b ad3d 9cf7 9ebc e57d 9abd
00000340: 39c9 8dbd 4035 a13d abd5 cfbc 9879 f43c
00000350: ed68 8d3d 82f9 d6bc 3cf8 0c3e f719 c0bd
00000360: 5c3f bbbc c1e2 58bd 6b1a 04be 34ee 95bc
00000370: a650 11bf 8040 0dbe 7c62 cfbd aacc 21bd
00000380: 5ebc eabc e170 2b3d b0a6 06be 65c2 433d
00000390: a18f aebc b2df 0bbe 560a 323d fd26 35bd
000003a0: 82d6 62bd 3bf0 5e3d 4047 b93c 8c4c ce3c
000003b0: 18b3 763b 4696 a33c 4b5b 103d ce28 1fbc
000003c0: d123 283d 0858 d73d 2612 a03c 320c 833d
000003d0: 713d 5c3e dbaf 9f3e e811 473d 9cd1 b03c
000003e0: af60 143e feb8 543d 9a7d f9bc af5e 4dbc
000003f0: af7a 65be 8d49 d53d 485d 67bc 0845 64be
0.23175822 0.1576278 -0.62014997 0.14810444 0.06911378 -0.17683473 -0.3626959 -0.23551245
-0.21714407 -0.42417908 0.028714286 0.000478187 -0.07210878 0.09597781 0.019867608 0.060262464
0.11037103 0.0051870192 -0.054959532 -0.015591543 0.028987616 -0.0035579032 0.112045765 0.04020453
0.0027269193 0.17137095 -0.05047846 0.05987813 -0.027950497 -0.0040130145 0.03510067 0.018634282
-0.045944408 -0.09858375 -0.006451908 -0.1711563 0.05098827 0.13237411 -0.06583387 0.052883614
0.0031101177 0.0058918684 0.035330366 -0.052318223 -0.03736839 0.024246482 0.0417212 -0.02770864
-0.097120225 -0.06055549 0.0010453735 0.2097353 -0.08457259 -0.113850154 -0.18704835 -0.08362804
-0.041093018 -0.16887183 0.26565287 -0.05852665 0.024078293 0.030930618 -0.0045636008 -0.063504584
0.08860222 -0.023910541 -0.053363685 -0.029807124 0.08873586 -0.12503915 -0.04993752 -0.07706427
0.019057969 0.28875557 -0.1891348 -0.05039518 0.068203025 0.026303789 0.044912096 -0.03768873
-0.0050098724 -0.21563911 -0.01441686 -0.18052487 -0.038412344 -0.016022941 0.006475413 0.040046357
0.10114969 0.021405797 -0.76443183 -0.19256985 0.003891674 -0.08988651 -0.030846886 0.03940538
0.053036578 0.1057797 0.082035825 -0.6124326 -0.13991763 0.056425005 -0.02173369 0.0469442
0.039442006 0.06318711 0.09444917 -0.05480966 0.092187375 0.09812251 0.19160394 0.07654085
0.08293238 0.051888764 0.050667085 0.043236617 0.06946866 0.0906092 0.049839653 0.058695413
0.040334787 0.005345956 0.073210195 -0.006342537 0.040329445 -0.0039022781 0.19158228 -0.017953102
-0.025503183 -0.008865166 -0.2113216 -0.055298734 0.08687435 -0.12827572 0.050813295 -0.09303964
0.01387982 -0.22101264 0.05303516 0.22127028 -0.01749356 0.07902764 0.14306396 0.11476743
-0.22436535 -0.12552701 -0.3657572 0.06872523 0.1582253 -0.032625496 0.06259081 0.24277656
-0.056523524 -0.19104657 -0.019973615 -0.42987812 0.085175976 0.07065997 0.149627 -0.14064963
0.207434 -0.11032404 -0.16655208 0.025850413 -0.3724621 0.1217877 0.07043438 -0.21454607
-0.055175543 0.20272687 -0.11568947 -0.033753347 -0.09112583 -0.13851096 0.024634998 0.14988014
-0.09721689 0.039737057 0.08150288 -0.08677812 0.074701 0.116839245 0.047157932 0.11441677
0.009739103 0.06078585 0.040199786 0.05584998 0.06381193 -0.10458425 -0.17333497 0.028996155
-0.20672777 -0.6197822 0.23572288 -0.010678061 0.017340885 0.011891579 -0.08893781 0.03528745
0.01759032 0.04054107 -0.5960213 -0.045207024 -0.016261581 0.084617384 -0.019405179 -0.07543544
-0.06923146 0.07871485 -0.02537044 0.029843137 0.06904779 -0.026242021 0.13766569 -0.093799524
-0.02285736 -0.052950624 -0.12900703 -0.01830206 -0.56763685 -0.13794136 -0.10126206 -0.039501823
-0.028654274 0.041855697 -0.13149524 0.04779281 -0.021308722 -0.13659552 0.04346689 -0.044226635
-0.05538035 0.05442832 0.022616982 0.025182985 0.003764337 0.019969117 0.035243314 -0.009714318
0.041049782 0.105148375 0.019539904 0.063988104 0.21507813 0.31188855 0.04860106 0.021584325
0.14490007 0.051934235 -0.0304554 -0.012534781 -0.22410081 0.10414419 -0.014121361 -0.22291958

decoder.0.bias f4 [16]
00000000: fab8 4a3d f61a 843b 15d7 373b cdc1 ea3c
00000010: a94a fc3c 78d8 15bb 978f 983c de2a 5dbd
00000020: 8972 393d 4e25 973c a600 123c 6c4f 7e3d
00000030: 2c6e ebbc e90f 39bd 365e 203d fdbf 423d
0.049492814 0.0040315343 0.0028051783 0.028656865 0.03079732 -0.002286462 0.018623156 -0.05399596
0.045275245 0.018450405 0.008911287 0.06208746 -0.028739057 -0.04518119 0.039152347 0.047546376

decoder.2.weight f4 [1, 16, 10, 3, 3]
00000000: a4bf 723c ea4e 2cbc 88af d5bc dcb6 013d
00000010: aeef 14bd 30bf 0aba 734e e73b 31d9 49bd
00000020: 2b3e 813c f78b c7bc c8fb 183c 92b5 6ebc
00000030: c53e 163d d159 3a3d a941 bcbc 0d34 3abc
00000040: a63b 41bd 5de1 0fbd 4ae1 aabb 3833 e43c
00000050: 0cdf 7b38 81c4 a9bc f73b ca3c 1717 893b
00000060: 8522 553b 888a 973d 09f0 1abc 0059 01bd
00000070: 2396 f4bc d112 c4bc f941 973c ad91 b1bc
00000080: a5ec a2bb d83d da3c a20f cd3c 0139 303d
00000090: a63a ee3c c8d0 78bd 3b2d 273d b4b9 3b3c
000000a0: 7948 11bb cc4d 3e3d 2404 6cbc c658 4fbd
000000b0: e1f7 e23d 8974 42bd 9834 f0ba 7c49 c43b
000000c0: aff8 d0bc 3829 ddbc 78f3 f13b af97 38bc
000000d0: 4ace 863d 2e97 c03d 15d6 0dbb d2e3 24bd
000000e0: cafd c13c 3bed c03c 018c 0bbe adf1 bcbb
000000f0: 252b 033d bfba d93d 4228 e7bc 4bfa 923d
00000100: c7df acbc e42b b3bc 3795 983d 9abf 74be
00000110: de10 583c 84d4 ce3c bc5c 17be 55f3 9ebd
00000120: 7c4b 89bd 941e a2ba 8086 67bd cbfc b3bc
00000130: 8271 de3e 3cbe 19bd fc3e 8fbd 869a efbc
00000140: e35d 19bd d78b ec3b 2d25 4fbd c930 bcbc
00000150: 5f82 893d 5d9e 4abd 4f7d 9ebd 3fa4 9f3c
00000160: e302 83bc d640 a53c d34c a33c 073c 14bc
00000170: 1124 95bc d62d b83a 8caf 69bc 61f5 673c
00000180: a778 52bb a1fd 41bc 0b11 2f3c c86c 91bc
00000190: a8fc 39bd b933 bfbc 905c f03b 41c4 e03b
000001a0: 3fa0 e13b f45b cc3c ce9c 933c 118d 953c
000001b0: 849b 9cbc 2f7d d9bc 748c 2a3c 5263 b63c
000001c0: 5212 b53b 11e9 573c d732 0b3c 684b 9c3c
000001d0: c32d c93b e583 c8bc 9e93 0dbd 03b3 13bd
000001e0: aa81 d43c 5a1b e03c 2218 d23c c788 cb38
000001f0: 8b63 e1bc 3094 6b3c d5a0 9139 4df7 48bd
00000200: 4732 cabc efe7 a63d df5b 233d 8fa9 a33d
00000210: 0e44 00bc da46 eebc f76b 50bc a34e db3c
00000220: 5d22 b8bd e9d3 893d 5fa0 243e a9a1 443d
00000230: 4d30 423e 733f 1dbd 1897 07be eb91 a0bd
00000240: 7d74 bb3c 430f 33bd 9512 2c3c cbb6 933c
00000250: 744e 833d 0384 56bd 2213 a7bc 16ca b53d
00000260: 614a bbbd 5fb7 8dbc 27ae 3ebd bdc1 06bd
00000270: 6674 6e3d d528 4d3e 1447 19bd 6c06 a1bd
00000280: f4f7 2e3d 0338 37bd 33ea 6dbd a07c a33c
00000290: 9486 fb3c c96b 8bbc 4a96 de3c e369 93bb
000002a0: 21b0 2d3d fd64 c9bc bbd2 773c 20e4 c5bd
000002b0: 4e10 8c3d 777a e5bb 3e5b 91bd 7ab4 553e
000002c0: f89b f5bd 5442 b2bc d8d9 6a3c b732 65bd
000002d0: bb7b ad3c 2f92 76bc bc29 32bc 23a3 64bc
000002e0: 9d50 6f3c 3981 033d 8570 1abd 93c2 ce3c
000002f0: 756d 05bc 52b3 80bc 4840 83bc f021 61bb
00000300: 4c02 56bb f35c 003c 8e5c ed3b d990 55bc
00000310: fa21 933c 52b1 7fbc 4338 39bc ff03 573c
00000320: 5caa 0ebc 2b6b bc3b 09a5 1bbb 0ed9 333d
00000330: 00b7 a43b 1c54 90bb 8d46 a5bc 2824 f5bc
00000340: 73d9 1bbc c563 f8bc 6c9d 093d ebe2 8f3c
00000350: 1a2d 343c 693f d0bb 7f70 95bc 65b6 5a3c
00000360: 123f 273b 93b0 c33c 71c8 073c bd4a c9bc
00000370: 438b 10bc eb30 df3b 01ba f038 efc8 9bbc
00000380: 1bd9 b0bb fb97 af3d 0944 d4ba 8f97 133c
00000390: a4ca a0bd 422c 90bd 3be5 9dbc 2e7f 803d
000003a0: 584c d5bc 1508 573c d8f6 a23d 332c 8dbd
000003b0: 448a 0f3d eee5 8c3d bfd3 a6be 40b5 ab3b
000003c0: 53f5 ba3e d411 c9bb 1624 43bd 0bbf ce3c
000003d0: b0e5 763d d997 65bc 4b51 e63a e10c 103f
000003e0: 6dc0 b53d a8e2 d83c a1b8 2f3d be57 42be
000003f0: ef72 bdbc 797b dabd 3171 413d 0113 123e
0.0148161985 -0.010516861 -0.026084676 0.03166853 -0.03636139 -0.00052927714 0.0070589124 -0.049279395
0.015776714 -0.024358733 0.009337373 -0.014569657 0.036680955 0.04549581 -0.022980528 -0.011364949
-0.047176026 -0.035127033 -0.005214845 0.027856454 6.0050792e-05 -0.020723583 0.024686797 0.0041836607
0.0032521796 0.073994696 -0.009456643 -0.031579018 -0.029856747 -0.023934754 0.018464075 -0.021675909
-0.004972058 0.026640818 0.025031868 0.043023113 0.0290807 -0.060745984 0.04081462 0.011457849
-0.0022168441 0.04646091 -0.014405284 -0.05062177 0.110824354 -0.047474418 -0.0018326221 0.0059902053
-0.025509207 -0.026997194 0.00738376 -0.011266633 0.06582315 0.09403835 -0.0021642495 -0.04025633
0.023680586 0.02355062 -0.13627626 -0.0057661147 0.032023568 0.10631322 -0.028217439 0.07176646
-0.0211028 -0.021871515 0.074503355 -0.23901215 0.013187615 0.02524782 -0.14781469 -0.07761256
-0.067038506 -0.0012368732 -0.056524754 -0.021971127 0.43445975 -0.037534937 -0.06994435 -0.029248487
-0.037443053 0.0072188186 -0.050572563 -0.022972481 0.067143194 -0.049467433 -0.077387445 0.019487498
-0.015992587 0.020172518 0.019934094 -0.009047515 -0.018205674 0.0014051746 -0.014263045 0.014157624
-0.0032115371 -0.011840255 0.010685216 -0.017752066 -0.045406967 -0.023340093 0.007335253 0.006859333
0.006885558 0.02494619 0.018019106 0.018255742 -0.019117124 -0.02654895 0.010409463 0.022264156
0.0055258656 0.013178126 0.008496008 0.019078925 0.0061394884 -0.024476955 -0.034564607 -0.03605939
0.025940735 0.027356792 0.025646273 9.705271e-05 -0.027513286 0.014378592 0.00027776384 -0.04906397
-0.024682177 0.081497066 0.039882537 0.07991325 -0.0078287255 -0.029086519 -0.012721053 0.026770895
-0.08990929 0.06729872 0.16076802 0.048005734 0.18963738 -0.038390588 -0.13241231 -0.07840332
0.022882694 -0.043715727 0.010502477 0.018031498 0.06411448 -0.05237199 -0.020394865 0.088764355
-0.09145046 -0.017299352 -0.046552803 -0.032899607 0.058216475 0.20035107 -0.0374213 -0.07862553
0.042716935 -0.04473115 -0.058084678 0.019956887 0.03070382 -0.01701917 0.027171273 -0.0044987067
0.042404298 -0.024584288 0.015125926 -0.09662652 0.06839047 -0.0070031243 -0.07097481 0.20869628
-0.11992639 -0.021760143 0.014334165 -0.05595657 0.021177163 -0.015049501 -0.010874208 -0.01395491
0.014606622 0.03210566 -0.037704963 0.025239265 -0.008143772 -0.015710507 -0.016021863 -0.0034352504
-0.0032655178 0.007834661 0.0072436994 -0.013035023 0.017960537 -0.015606241 -0.011304918 0.013123511
-0.008707609 0.00575008 -0.0023749492 0.04390817 0.005026698 -0.004404558 -0.020175243 -0.029924467
-0.009512293 -0.030321011 0.033597395 0.017564258 0.010997081 -0.0063552153 -0.018242119 0.01334915
0.002551977 0.023887908 0.008287535 -0.02457177 -0.008822265 0.0068112514 0.00011478738 -0.019016711
-0.0053969747 0.0857391 -0.0016194592 0.009008302 -0.07851151 -0.070396915 -0.019274345 0.062742576
-0.02603738 0.0131244855 0.07957238 -0.06893196 0.03504397 0.06879793 -0.32583424 0.0052401125
0.36515293 -0.0061361585 -0.047641836 0.02523758 0.06027764 -0.014013254 0.0017571835 0.5626965
0.08874593 0.026475266 0.042900685 -0.18978783 -0.023126094 -0.10668082 0.04722709 0.14265062
